final_score.pth (torch, 618543 bytes, 22 tensors)

fc_input.weight f4 [200, 24]
0	0x3dfe89ea	0.12428649
1	0x3e23fba7	0.16013967
2	0xbdd792b5	-0.10526029
3	0x3d15ba88	0.036554843
4	0x3c14f28c	0.009091031
5	0xbf7636f8	-0.96177626
6	0xbdd393bd	-0.10330913
7	0x3d461e35	0.04836865
8	0x3e12e5d0	0.14345479
9	0x3e864c9e	0.2623033
10	0xbe837e74	-0.25682414
11	0xbd8f61d8	-0.07001084
12	0x3eac110a	0.3360675
13	0xbfd12d48	-1.6341944
14	0xbe67ffc2	-0.22656158
15	0xbb9049c9	-0.004403327
16	0x3db418f3	0.08793821
17	0x3f039b43	0.51408786
18	0x3da98f40	0.08279276
19	0x3d1dd76b	0.038535517
20	0x3f06eab6	0.5270189
21	0xc020bd12	-2.51154
22	0x3d55a12d	0.052155662
23	0x3e047414	0.12934905
24	0x3ef53742	0.4789372
25	0x3f571305	0.84013397
26	0x3d7a2d23	0.061078202
27	0x3e9b331e	0.30312437
28	0xbe36d673	-0.17855243
29	0xbed99747	-0.42498228
30	0x3e364f37	0.17803656
31	0x3e73aa63	0.23795466
32	0x3e8cb30a	0.27480346
33	0x3f85bb10	1.0447712
34	0xbe87621f	-0.26442048
35	0x3e009a33	0.12558822
36	0xbe07dcf5	-0.13267882
37	0xbf0e99fb	-0.55703706
38	0xbe23064b	-0.1592037
39	0x3e2c637f	0.1683483
40	0x3eca9f64	0.3957473
41	0x3f7a0792	0.976678
42	0x3efef90b	0.4979938
43	0xbed299e8	-0.41133046
44	0xbc8ff836	-0.01757441
45	0xbeb89b6d	-0.3605608
46	0x3edb0652	0.4277826
47	0xbed4cbec	-0.4156183
48	0x3ed4a438	0.4153154
49	0xbe29015a	-0.16504422
50	0xbe774b57	-0.24149834
51	0x3b70e56d	0.0036757842
52	0x3eb78994	0.3584715
53	0xbf8e9b9f	-1.1141242
54	0xbe5ce7c9	-0.21572794
55	0x3c957814	0.018245734
56	0x3ee3e9f8	0.44514441
57	0xbea06be5	-0.31332317
58	0x3e880ee6	0.26573867
59	0x3ee5d399	0.44888
60	0x3eb272e0	0.34853268
61	0xbf486a11	-0.78286844
62	0x3e72fb75	0.23728736
63	0x3efea665	0.49736324
64	0x3eba2dba	0.36363012
65	0xbeadc628	-0.33940244
66	0x3e6c7e04	0.23094946
67	0x3e7d5f38	0.24743354
68	0x3f33698b	0.7008292
69	0xbe877f8f	-0.26464507
70	0x3e17bd1b	0.14818232
71	0x3e838acc	0.2569183
72	0x3eb5b7ad	0.35491696
73	0x3d3b3cf7	0.045712437
74	0xbc815f8f	-0.015792636
75	0x3e02d276	0.12775597
76	0x3ebc8908	0.36823297
77	0xbf446bc1	-0.7672692
78	0xbd501b74	-0.05080743
79	0x3df521a3	0.11969306
80	0x3e712ee4	0.23553044
81	0x3d9932d2	0.07480396
82	0xbe3ddff9	-0.1854247
83	0x3db0d4f2	0.08634366
84	0x3ee8103c	0.45324886
85	0xbf4b15ed	-0.7933033
86	0xbdd76db6	-0.105189726
87	0x3e10bb6e	0.14133999
88	0x3eb05941	0.34443095
89	0x3ea2e470	0.3181491
90	0xbc97c71b	-0.018527558
91	0x3e2ff0f1	0.17181756
92	0x3f24c8e5	0.6436904
93	0xbfaa9470	-1.332655
94	0xbd47003a	-0.0485842
95	0x3e6ff867	0.23434602
96	0xbe89a001	-0.26879886
97	0x3e49e19e	0.19714972
98	0x3d969c74	0.0735406
99	0xbe36daf3	-0.1785696
100	0xbf4a1b65	-0.7894805
101	0xbf1e5501	-0.61848456
102	0x3db571c3	0.08859589
103	0xbe86ef22	-0.2635432
104	0xbe87b9ab	-0.2650884
105	0x3e02dff2	0.12780741
106	0x3d9d0c0c	0.076683134
107	0xbd728a8d	-0.059214164
108	0xbe9e9962	-0.30976397
109	0xbf96e837	-1.1789616
110	0x3d7e4a17	0.062082376
111	0xbca8cb83	-0.020604854
112	0xbea80120	-0.32813358
113	0x3e449e62	0.19201043
114	0xbd836012	-0.06414808
115	0x3d794504	0.060856834
116	0x3e268c25	0.16264398
117	0xc0048dce	-2.071155
118	0xbdfce2fe	-0.12347983
119	0xbc805bce	-0.015668776
120	0x3ed35c4b	0.4128135
121	0x3cf2180f	0.029552488
122	0x3dca9686	0.09891991
123	0xbece72c1	-0.40321925
124	0x3ea183de	0.3154592
125	0xbf229f28	-0.63524103
126	0x3d77508a	0.060379542
127	0xbeec1296	-0.4610793
128	0x3f1536ce	0.5828675
129	0x3e4da99d	0.20084234
130	0x3e331418	0.17488134
131	0x3f4993be	0.7874106
132	0x3e06d7db	0.1316828
133	0xbf4a4af5	-0.79020625
134	0x3e4fc8bf	0.20291422
135	0x3f37cb8f	0.7179498
136	0x3efdbe93	0.4955946
137	0x3e3fad7c	0.18718523
138	0xbe71f99b	-0.23630373
139	0xbe830182	-0.25587088
140	0xbc0dc2bf	-0.008652388
141	0xbf5de5aa	-0.86678565
142	0xbe017c22	-0.12645009
143	0xbec2e0fb	-0.3806227
144	0x3ebe47eb	0.37164244
145	0xbe994de2	-0.29942232
146	0xbda97cf7	-0.08275788
147	0xbf049358	-0.5178733
148	0xbece3c1a	-0.4028023
149	0xbf5cf734	-0.863147
150	0xbe1f45f7	-0.15554033
151	0xbf005c1f	-0.50140566
152	0x3ef28b82	0.4737206
153	0xbedfa8df	-0.43683526
154	0xbb0fd111	-0.0021944682
155	0xbf69f943	-0.9139597
156	0xbea89417	-0.32925484
157	0xbeef2131	-0.4670501
158	0x3d130c36	0.035900317
159	0xbf5e9ced	-0.869582
160	0x3f1da902	0.6158601
161	0xbe2083f6	-0.15675339
162	0x3ea2ef4c	0.31823194
163	0xbe3717fd	-0.17880245
164	0xbdf36542	-0.11884548
165	0x3dc38b41	0.09548045
166	0x3ec2c430	0.38040304
167	0xbe3e59be	-0.18588921
168	0x3f251c77	0.6449656
169	0xbd8f7ecd	-0.07006607
170	0x3d7eeb83	0.06223632
171	0xbf0729d8	-0.52798223
172	0xbec53c5c	-0.38522613
173	0xbe0bf6e5	-0.13668402
174	0x3d48efc6	0.04905679
175	0xbf0432db	-0.516401
176	0x3f52cbd6	0.8234228
177	0xbeb659a7	-0.35615274
178	0x3e71b5ff	0.23604582
179	0xbdf2f9f9	-0.11864085
180	0xbef576f7	-0.47942325
181	0xbd1fc5c4	-0.039006963
182	0x3e936d2f	0.28794238
183	0xbe60795e	-0.21921298
184	0x3f692d6d	0.9108494
185	0xbebc82c0	-0.36818504
186	0x3e3b64b8	0.1830014
187	0x3e4eaae8	0.20182383
188	0xbf1d13fa	-0.61358607
189	0xbe46604b	-0.1937267
190	0x3e5314e7	0.20613442
191	0x3e14f57d	0.14546771
192	0xbeda1fdd	-0.42602435
193	0x3ee86d0d	0.453957
194	0xbdba140d	-0.09085856
195	0xbe28694d	-0.16446419
196	0xbebe3ee0	-0.37157345
197	0xbf2ad5ea	-0.66732657
198	0xbe0f5efd	-0.14001079
199	0xbe551411	-0.20808436
200	0xbea56072	-0.32300144
201	0x3ee83443	0.45352373
202	0xbd9f85e1	-0.07789207
203	0x3ce11579	0.02747606
204	0x3bc0669a	0.005871606
205	0xbf5959be	-0.8490256
206	0xbd3655de	-0.044515483
207	0x3d41b23c	0.04728912
208	0xbee13564	-0.43986046
209	0x3f359836	0.7093538
210	0x3ea63e65	0.32469478
211	0x3e48f6d3	0.19625406
212	0x3f07d6e6	0.53062284
213	0xbf72a220	-0.94778633
214	0x3ecc8402	0.39944464
215	0x3e1060cf	0.1409943
216	0x3f979d74	1.1844926
217	0xbf108fe7	-0.5646958
218	0x3e02787e	0.12741277
219	0xbe1f3420	-0.15547228
220	0xbede4725	-0.43413654
221	0x3d87d687	0.06632715
222	0x3db796b5	0.08964292
223	0xbdde6739	-0.10859532
224	0x3f5cdcb0	0.8627424
225	0xbf2a08cd	-0.6641968
226	0xbe352eba	-0.17693606
227	0xbeab1970	-0.33417845
228	0xbec37808	-0.38177514
229	0xbdeb47a3	-0.11488273
230	0xbe02f172	-0.12787417
231	0xbea58d8c	-0.32334554
232	0x3f9afacd	1.2107788
233	0xbf1911ba	-0.59792674
234	0x3d0a5859	0.03377566
235	0x3ed59a69	0.41719368
236	0xbf047f7f	-0.51757044
237	0xbe81ca4f	-0.25349662
238	0x3d111df6	0.035428964
239	0x3ef73424	0.48281968
240	0xbe4a31cc	-0.19745559
241	0x3eaba6b9	0.33525637
242	0xbd79e6b5	-0.061011035
243	0x3e9e8a32	0.3096481
244	0xbf8c33c8	-1.0953302
245	0x3eaa47cc	0.33257902
246	0xbd9d634e	-0.076849565
247	0x3e83a514	0.25711882
248	0x3e505179	0.2034358
249	0x3e82a118	0.2551353
250	0xbe18a9c6	-0.14908513
251	0xbd6188e3	-0.055062186
252	0xbd9c8284	-0.076420814
253	0x3eb488ab	0.3526052
254	0xbe772ee4	-0.24138981
255	0xbd819ab0	-0.063283324

fc_input.bias f4 [200]
0	0xbe9cfc9c	-0.30661476
1	0xbe3ae88e	-0.18252775
2	0xbdfcd76a	-0.123457745
3	0xbf02ba6a	-0.51065695
4	0x3e84d42b	0.2594312
5	0xbea64cfa	-0.32480603
6	0xbef962a8	-0.4870808
7	0xbf049c03	-0.51800555
8	0x3e65c6b5	0.22439082
9	0xbf0852ed	-0.53251535
10	0xbe4ed9e2	-0.20200303
11	0xbe3f8c39	-0.18705834
12	0x3c7f32db	0.01557609
13	0xbf00abf3	-0.50262374
14	0xbee1d329	-0.44106415
15	0xbe9fcfdd	-0.31213275
16	0x3c836426	0.016038965
17	0xbe08e7d8	-0.13369691
18	0x3df088ad	0.11744819
19	0xbe6e7dec	-0.23290223
20	0x3e4eea7d	0.20206638
21	0x3dae8d06	0.08522992
22	0xbf38c480	-0.72174835
23	0xbeabc15d	-0.33545962
24	0x3dc2b667	0.09507447
25	0xbe712fbc	-0.23553365
26	0xbe1e5a63	-0.15464167
27	0xbf40074c	-0.75011134
28	0xbdb3a3c3	-0.087714694
29	0xbeb2a868	-0.3489411
30	0xbf098dfa	-0.53732264
31	0xbe77d027	-0.24200498
32	0xbf335499	-0.7005096
33	0xbe15e945	-0.14639767
34	0xbda86d7e	-0.08224009
35	0xbe6a8451	-0.22902037
36	0xbf1a6746	-0.6031383
37	0x3de4a06e	0.11163412
38	0xbefc1931	-0.4923797
39	0xbef5c8a1	-0.4800463
40	0xbf0d80eb	-0.5527484
41	0xbba06abc	-0.004895536
42	0xbf2eeca1	-0.6832982
43	0xbee308b8	-0.4434259
44	0xbed3f309	-0.4139636
45	0xbf000c8a	-0.50019133
46	0xbf2b6336	-0.6694826
47	0xbf1d9ed6	-0.6157049
48	0xbdcad260	-0.09903407
49	0xbdf0fc5c	-0.11766884
50	0xbe1cfbf1	-0.15330483
51	0xbe4a5497	-0.19758831
52	0x3cf96293	0.030442512
53	0xbecc0c4b	-0.3985313
54	0xbf486134	-0.7827332
55	0xbe4a2018	-0.19738805
56	0xbeaaba90	-0.3334546
57	0xbf103492	-0.56330216
58	0xbf27543e	-0.6536292
59	0xbdf7f1f5	-0.121066965
60	0x3dc7cd6e	0.097559795
61	0xbf3ecfc5	-0.7453578
62	0xbc1379fe	-0.009001253
63	0xbefc6c52	-0.49301392
64	0xbeecde6c	-0.46263444
65	0xbce0078f	-0.027347354
66	0xbe058bd3	-0.1304162
67	0xbf08411a	-0.5322434
68	0xbed434a3	-0.4144641
69	0x3ea47b5b	0.32125363
70	0xbe6c47a7	-0.23074208
71	0x3da1eb26	0.07906179
72	0xbee1c7b4	-0.44097674
73	0xbf0c99cc	-0.54922175
74	0xbe96f07b	-0.29480347
75	0xbe24aa3e	-0.16080567
76	0xbeb71d28	-0.35764432
77	0xbed395dc	-0.4132527
78	0xbf174bd9	-0.5910011
79	0x3bbec6c8	0.0058220364
80	0xbe9c2fa0	-0.30505085
81	0xbda28fcb	-0.079375826
82	0x3c8ec403	0.01742745
83	0xbf19813f	-0.5996284
84	0xbf559af0	-0.8343954
85	0xbe3d8f78	-0.1851176
86	0xbef950ca	-0.4869445
87	0xbf06d5bf	-0.526699
88	0xbed53717	-0.41643593
89	0xbec1eb37	-0.37874767
90	0xbe2bcb45	-0.1677676
91	0xbe95b454	-0.29239142
92	0xbf2c4415	-0.67291385
93	0xbeb8c465	-0.36087337
94	0xbe90409e	-0.281743
95	0xbea80730	-0.32817984
96	0xbf2f9314	-0.685838
97	0xbed9d800	-0.42547607
98	0xbf1fb22b	-0.6238124
99	0xbe3d56c8	-0.18490136
100	0xbe16845b	-0.14698927
101	0xbeaa7865	-0.3329498
102	0xbdd5a037	-0.10430949
103	0xbc3bcf92	-0.011463063
104	0x3e08dc5c	0.1336531
105	0xbe89ea19	-0.26936415
106	0xbeb5fa1f	-0.3554239
107	0xbe1b722b	-0.1518027
108	0xbdff8b25	-0.124777116
109	0xbe15ca18	-0.14627874
110	0xbf29dbe3	-0.66351146
111	0xbf10c69d	-0.5655306
112	0xbf1f82ae	-0.62308776
113	0xbeeca8ff	-0.46222684
114	0xbeb76bd8	-0.35824466
115	0xbe866f82	-0.2625695
116	0xbe89da37	-0.26924297
117	0xbea4a052	-0.32153565
118	0xbe84fcd9	-0.25974157
119	0xbe49d1cc	-0.19708937
120	0xbeedd633	-0.46452484
121	0xbe507c1d	-0.20359845
122	0xbdddde51	-0.10833419
123	0xbd8ce366	-0.0687931
124	0xbe945e58	-0.2897823
125	0xbf0ffbb7	-0.5624346
126	0xbe9ceb5d	-0.30648318
127	0xbe63995e	-0.22226474
128	0xbf1e5fba	-0.6186482
129	0xbf15091d	-0.5821703
130	0xbe7f490a	-0.24930206
131	0xbec7664f	-0.38945243
132	0xbde51fdc	-0.11187717
133	0x3ea5b69a	0.32365876
134	0xbe943951	-0.2894998
135	0xbe7fb3d6	-0.24970946
136	0xbe7cb954	-0.24680072
137	0x3ca1c19c	0.01974564
138	0x3e6bb251	0.23017241
139	0x3d8cb9ad	0.06871352
140	0xbf307cc2	-0.68940365
141	0x3e2c1a18	0.16806829
142	0xbf190f61	-0.5978909
143	0xbf13d013	-0.5773937
144	0xbf1a87a5	-0.6036323
145	0xbf0ee674	-0.55820394
146	0xbe83d9f1	-0.25752214
147	0xbe85b531	-0.261148
148	0xbed1eb7d	-0.40999976
149	0xbbe56ac9	-0.007001255
150	0xbe4a517e	-0.1975765
151	0xbf034ca6	-0.5128883
152	0xbf051f6c	-0.5200107
153	0xbebb5431	-0.3658767
154	0x3d5ce494	0.053928927
155	0x3b8eeea6	0.004361945
156	0xbf140187	-0.5781483
157	0xbe516125	-0.20447214
158	0xbf453432	-0.7703277
159	0xbcd44e5e	-0.025916275
160	0x3d360567	0.044438746
161	0xbf11b2f0	-0.5691366
162	0x3e406722	0.18789342
163	0xbe103781	-0.14083673
164	0xbdd80b8a	-0.10549076
165	0x3da0336d	0.07822309
166	0xbd88da37	-0.06682246
167	0xbd121850	-0.035667717
168	0x3bfe8b30	0.0077680573
169	0xbe39026d	-0.18067332
170	0xbe282532	-0.16420439
171	0xbe87dcd9	-0.2653568
172	0xbce8aac9	-0.02840175
173	0xbe87854b	-0.26468882
174	0x3d301d4a	0.042996682
175	0xbee4a7e2	-0.44659334
176	0xbc42165d	-0.011846152
177	0x3dfb17dc	0.1226041
178	0xbe5a7545	-0.21333797
179	0xbf1a9f67	-0.6039948
180	0xbe8846fa	-0.2661665
181	0x3f303007	0.68823284
182	0x3cb36ffb	0.021903982
183	0xbd958582	-0.07300855
184	0xbeb9fdfe	-0.36326593
185	0x3da51a1c	0.080616206
186	0xbe80c761	-0.25152114
187	0x3ca12d63	0.019674962
188	0xbee27aae	-0.44234222
189	0xbee46a5d	-0.446124
190	0xbeaa9812	-0.33319145
191	0xbe60c3d1	-0.21949698
192	0xbe91cd38	-0.28476882
193	0xbebcac22	-0.36850077
194	0xbe904d91	-0.28184178
195	0xbf2123a0	-0.62944984
196	0xbec55d39	-0.38547686
197	0xbf0ce5e5	-0.5503829
198	0x3e297592	0.16548756
199	0xbd821b9f	-0.063529246

hidden.weight f4 [150, 200]
0	0xbe0fc116	-0.140385
1	0xbe5b413a	-0.214116
2	0xbeddab4d	-0.43294755
3	0xbf1bd71a	-0.60875094
4	0xbdbb0a9f	-0.09132885
5	0xbe764236	-0.24048695
6	0x3df0638c	0.11737737
7	0xbebbbc92	-0.36667305
8	0xbf1344d5	-0.57526904
9	0xbd7f78bd	-0.062371004
10	0xbe5399a8	-0.20664084
11	0x3eaaf9c9	0.33393696
12	0xbee7628c	-0.45192373
13	0x3e26caa4	0.16288239
14	0x3ee6d7a0	0.45086384
15	0x3e38062a	0.17971101
16	0xbd43f2a3	-0.04783882
17	0x3ddcacbe	0.107751355
18	0x3b989ab1	0.0046571125
19	0xbf2fdf95	-0.68700534
20	0xbe315320	-0.17316866
21	0xbe9eca36	-0.3101365
22	0xbe3860df	-0.18005703
23	0xbeaa61cb	-0.33277735
24	0xbe7325c3	-0.23744874
25	0xbbaafa2d	-0.0052178116
26	0x3e3d4927	0.18484937
27	0x3ce360db	0.027756145
28	0xbf1097b8	-0.56481504
29	0x3d8e7b24	0.06957081
30	0xbe97ccb8	-0.29648376
31	0x3d65791c	0.056023702
32	0x3d608b0e	0.054820113
33	0x3e19cd6d	0.1501977
34	0xbe362a07	-0.1778947
35	0x3d1a8909	0.037728343
36	0xbe158186	-0.1460019
37	0x3e9f36e0	0.31096554
38	0x3d66a427	0.05630889
39	0x3f12fc9a	0.5741669
40	0xbd399286	-0.04530575
41	0x3e06af5b	0.1315283
42	0xbe6560b2	-0.22400168
43	0xbcb560ae	-0.022140827
44	0xbe046b52	-0.12931564
45	0xbf8cae3e	-1.0990674
46	0x3d9b94b8	0.07596725
47	0x3e0bfdfe	0.13671109
48	0xbec9db66	-0.394252
49	0xbd84acad	-0.06478248
50	0xbf815d5c	-1.0106616
51	0xbd0b8568	-0.034062773
52	0xbe669762	-0.22518685
53	0xbe3daed5	-0.18523724
54	0x3e5cf074	0.215761
55	0x3ca444a5	0.020052264
56	0x3e8ee44b	0.2790855
57	0x3e125855	0.14291508
58	0xbddd2a51	-0.10799087
59	0xbeb445ee	-0.35209602
60	0xbdbf6e82	-0.093472496
61	0x3e14ac26	0.14518794
62	0xbf21ee35	-0.632541
63	0x3d8a22f5	0.06744949
64	0x3e9db4f3	0.30802116
65	0xbdcca65b	-0.09992667
66	0xbe2c1e6d	-0.16808482
67	0xbcdb46c4	-0.026767142
68	0xbf22e3e2	-0.6362897
69	0xbea6d411	-0.3258367
70	0x3e94ccc0	0.29062462
71	0xbf8b2b3a	-1.0872567
72	0xbe0a327e	-0.13495824
73	0xbf3cb44a	-0.737126
74	0xbe2fda14	-0.17173034
75	0xbf04b28c	-0.5183494
76	0xbe0047cf	-0.12527393
77	0xbbd1e9ed	-0.00640606
78	0xbf5b8fbc	-0.85766196
79	0x3e5889a0	0.2114625
80	0xbf152ca6	-0.58271253
81	0x3e83b986	0.2572748
82	0xbf0a5514	-0.5403607
83	0x3d41579a	0.047202684
84	0x3e8ba882	0.27277
85	0xbdfc0f77	-0.12307637
86	0xbe6e6f25	-0.23284586
87	0xbe616c19	-0.22013892
88	0xbe119346	-0.14216337
89	0x3d5876e8	0.052847773
90	0xbecde2c5	-0.40212074
91	0xbdfc3fcb	-0.12316855
92	0xbe3e22a6	-0.18567905
93	0xbeb1f7b5	-0.34759298
94	0xbc4cc28a	-0.012497554
95	0xbd4fc921	-0.05072892
96	0x3e4a5ebe	0.19762704
97	0xbcb7972c	-0.022410952
98	0xbdb0a259	-0.08624715
99	0xbf36d572	-0.7141944
100	0xbe895824	-0.26825058
101	0x3d81ddc0	0.063411236
102	0xbf64a12a	-0.89308417
103	0xbe6fa489	-0.23402609
104	0xbf0a64fe	-0.5406035
105	0xbd9c17e0	-0.07621741
106	0x3eb22936	0.34797066
107	0x3d701047	0.058609273
108	0xbf54f447	-0.8318524
109	0xbebf72b7	-0.37392208
110	0xbdf2feaa	-0.118649796
111	0xbe1ff2f4	-0.15620023
112	0x3e080792	0.13284138
113	0x3cb88a14	0.022526778
114	0xbe4bcd3f	-0.19902514
115	0x3e7dc54c	0.24782294
116	0x3e6e1164	0.23248821
117	0x3ee82ac9	0.45345142
118	0xbe66fe53	-0.22557954
119	0xbe4ac839	-0.19802941
120	0xbe9bae26	-0.30406302
121	0xbebd9d14	-0.37033904
122	0x3d932db7	0.07186454
123	0xbf11f7f1	-0.57018954
124	0xbea94a4d	-0.330645
125	0xbdfe6709	-0.12421996
126	0x3d4952d3	0.049151253
127	0x3dc28fd1	0.09500087
128	0xbe307198	-0.17230833
129	0xbd1c1cc7	-0.03811338
130	0xbeae056d	-0.33988515
131	0x3d051ebc	0.032500014
132	0x3d8649e7	0.065570645
133	0xbf2d6d10	-0.6774454
134	0xbbb4c7fe	-0.005517005
135	0xbdaf4c7f	-0.08559512
136	0xbf050a8e	-0.5196923
137	0x3b0aa55a	0.0021155686
138	0xbe99facc	-0.30074155
139	0x3e8e11ef	0.27748057
140	0x3e15f668	0.14644778
141	0xbeacc7c4	-0.3374616
142	0xbf19f2ac	-0.6013591
143	0xbe3e1f44	-0.18566614
144	0xbee5b430	-0.44864035
145	0xbe4c7076	-0.19964775
146	0xbe008530	-0.12550807
147	0x3e9f101f	0.31066987
148	0xbea173ec	-0.31533754
149	0x3e02e350	0.12782025
150	0xbeba5440	-0.36392403
151	0xbe8cb1a0	-0.27479267
152	0xbe99b81c	-0.30023277
153	0xbed50d7f	-0.4161186
154	0x3eb53594	0.3539244
155	0xbe6b9031	-0.23004223
156	0x3e625c19	0.22105445
157	0x3e4fd59a	0.20296326
158	0xbeb88c49	-0.3604453
159	0xbe11c0a1	-0.14233638
160	0x3e7fd20a	0.24982467
161	0x3ce94b0f	0.028478174
162	0xbed0830a	-0.40724975
163	0x3cae0bd9	0.021245884
164	0xbdfb6bf5	-0.122764505
165	0xbedd5536	-0.43229073
166	0xbe138255	-0.14405186
167	0x3d9b9cd2	0.075982705
168	0xbf08b5a6	-0.53402174
169	0xbf851c11	-1.039919
170	0x3dd99989	0.10624988
171	0xbef815ae	-0.4845404
172	0x3e3e8a08	0.18607342
173	0xbdaeb0da	-0.085298255
174	0xbefb5d4e	-0.49094623
175	0x3ee4f09d	0.44714823
176	0xbebc5b07	-0.36788198
177	0xbe97ba9f	-0.29634568
178	0x3d00b13c	0.031419024
179	0xbe9c31e1	-0.30506805
180	0x3bc1f191	0.0059186895
181	0xbee53615	-0.44767824
182	0x3d36eb6c	0.04465811
183	0xbe008edb	-0.12554495
184	0xbeb26533	-0.34842834
185	0xbf2c40e9	-0.67286545
186	0x3da98a9b	0.0827839
187	0xbf00aa08	-0.5025945
188	0xbda67cf9	-0.081293054
189	0xbebe0d8b	-0.37119707
190	0x3ed6599b	0.4186524
191	0xbf17b087	-0.59253734
192	0x3ee1b7fc	0.4408568
193	0xbdb840f1	-0.089967616
194	0xbe5f4325	-0.21802957
195	0xbed90c6a	-0.42392284
196	0xbd29c3cd	-0.041446496
197	0xbdb19ab7	-0.08672088
198	0x3dc69f19	0.09698314
199	0xbda800bc	-0.08203265
200	0x3e3ee716	0.1864284
201	0x3e6c4fe4	0.23077351
202	0x3e128d20	0.14311647
203	0x3f2948c2	0.66126645
204	0x3e81c51a	0.2534569
205	0x3d09c164	0.033631697
206	0xbece7d58	-0.40330005
207	0x3c0be2f4	0.008537997
208	0xbcec7090	-0.028862268
209	0x3eaa4511	0.33255818
210	0xbe2ff4d5	-0.1718324
211	0xbde12e54	-0.109951645
212	0x3e4f644b	0.20253102
213	0x3d4ee62f	0.05051249
214	0x3ddea02c	0.10870394
215	0x3e65a58a	0.2242643
216	0x3efe2808	0.49639916
217	0x3ef3caeb	0.47615752
218	0x3eead76a	0.45867473
219	0xbee74dbf	-0.45176503
220	0xbee47854	-0.44623053
221	0xbd996cca	-0.07491453
222	0xbe5a3a16	-0.2131122
223	0x3daf6bed	0.08565507
224	0x3d4a0098	0.049316972
225	0xbe248c10	-0.16069055
226	0x3e582505	0.21107872
227	0x3d53c082	0.05169726
228	0xbe59ea6a	-0.21280828
229	0xbf7282d2	-0.94730866
230	0x3e54d8e9	0.2078587
231	0x3e73939b	0.23786776
232	0xbeb1a5ff	-0.34696957
233	0x3eef492b	0.4673551
234	0xbe07c038	-0.1325692
235	0x3dc5a5fd	0.096508004
236	0x3da95836	0.08268778
237	0x3e4b3879	0.19845761
238	0x3d296b2d	0.041361976
239	0x3e15a4b6	0.14613613
240	0xbf63da12	-0.89004624
241	0xbe51b468	-0.20478976
242	0x3e16a02e	0.14709541
243	0x3e4f2ce3	0.20231967
244	0x3e8eca3c	0.27888668
245	0xbf19d8a3	-0.60096186
246	0xbe1d1ef7	-0.15343843
247	0xbe5f59d3	-0.21811609
248	0x3ea9c5b1	0.3315864
249	0xbef0e8bc	-0.47052562
250	0x3edaaeb7	0.42711422
251	0xbcf76545	-0.030199656
252	0x3d1fed3a	0.039044596
253	0x3e36ba19	0.17844428
254	0xbc4b7939	-0.012419038
255	0x3ed5b68a	0.4174083

hidden.bias f4 [150]
0	0xbd76c481	-0.060245994
1	0x3d9abfda	0.07556124
2	0x3ea5f62a	0.3241437
3	0xbe224144	-0.1584521
4	0xbe216c51	-0.15763976
5	0xbeacd9b1	-0.33759835
6	0xbb313004	-0.0027036676
7	0xbea78c8b	-0.32724413
8	0xbdfa342d	-0.12216983
9	0xbd3c50f2	-0.045975633
10	0xbd1f8d1c	-0.03895293
11	0x3e1cc629	0.15309967
12	0xbd432bb4	-0.0476491
13	0xbe4fb1a4	-0.20282608
14	0xbe8790d3	-0.2647768
15	0x3cf8e98c	0.030384801
16	0xbcf04f04	-0.029334553
17	0x3e574925	0.21023996
18	0xbe9d98dc	-0.30780685
19	0xbe3000c6	-0.17187795
20	0x3e43816b	0.19092338
21	0xbd66cbda	-0.05634675
22	0xbe5e8744	-0.21731287
23	0x3e35fe63	0.17772822
24	0xbe3caeb7	-0.18426023
25	0x3d50d93b	0.050988417
26	0xbdfaca20	-0.122455835
27	0xbe297efa	-0.16552344
28	0xbed8c46d	-0.4233736
29	0xbe52c81e	-0.20584151
30	0xbec39a2e	-0.38203567
31	0xbf3a11f4	-0.72683644
32	0x3c481901	0.012212993
33	0xbe048208	-0.12940228
34	0xbe7f733d	-0.24946304
35	0xbf263cb8	-0.649364
36	0xbd943062	-0.07235791
37	0xbe152c68	-0.14567721
38	0xbec61c0f	-0.38693282
39	0xbed6c8a3	-0.4194995
40	0x3e5c4875	0.21512015
41	0xbd678e52	-0.05653221
42	0x3e836ec1	0.25670436
43	0xbd6e892a	-0.05823628
44	0xbd26e15f	-0.040742274
45	0x3e1097a6	0.1412035
46	0x3c857cec	0.016294919
47	0x3d140272	0.036135145
48	0xbd1f47e0	-0.038886905
49	0xbf0ffb66	-0.5624298
50	0x3dc1f8a0	0.094712496
51	0xbe30eb03	-0.1727715
52	0xbed730b0	-0.42029333
53	0xbf14c9bf	-0.5812034
54	0xbdf41416	-0.119178936
55	0xbe2287a6	-0.15872058
56	0x3e89de8f	0.2692761
57	0xbe4158d4	-0.18881541
58	0xbeabe8d9	-0.33576086
59	0xbebfdcac	-0.37473047
60	0xbdf4972b	-0.119428955
61	0xbd6fddbf	-0.058561083
62	0xbdae87a1	-0.08521963
63	0xbd94a78b	-0.07258519
64	0xbe85abca	-0.26107627
65	0xbda9f824	-0.08299282
66	0xbe3f6182	-0.1868954
67	0xbda609ca	-0.08107336
68	0xbd583253	-0.052782368
69	0x3ccbc3d6	0.024873655
70	0xbe050aa4	-0.1299234
71	0xbe8430ce	-0.25818485
72	0xbd35287f	-0.044228073
73	0xbe23e17f	-0.16003989
74	0xbd4ec6db	-0.050482612
75	0x3e406be9	0.18791164
76	0x3e4181e4	0.18897206
77	0xbebb80fc	-0.36621845
78	0xbded3711	-0.11582769
79	0x3e95fd4d	0.29294816
80	0xbe9bbdd4	-0.30418265
81	0xbe8a0ff6	-0.26965302
82	0x3dd7057b	0.10499092
83	0xbe375049	-0.1790172
84	0xbda46849	-0.08027703
85	0xbea8db28	-0.32979703
86	0xbf13b355	-0.57695514
87	0x3db5f187	0.08883958
88	0xbdc1d92a	-0.09465249
89	0xbe81e81a	-0.25372392
90	0x3ce20a48	0.027592793
91	0xbd5437bc	-0.051810965
92	0xbdcf83b5	-0.10132543
93	0xbe017e90	-0.12645936
94	0xbd1e79f5	-0.038690526
95	0x3e22cace	0.15897676
96	0xbe5bb8a6	-0.21457157
97	0xbd1de842	-0.038551576
98	0xbe43b914	-0.1911357
99	0xbee98403	-0.4560853
100	0xbe6263f9	-0.22108449
101	0xbe964682	-0.29350668
102	0xbe6744f9	-0.22584905
103	0xbf0bdbd3	-0.546323
104	0xbe6b7657	-0.22994362
105	0xbd8b1ae0	-0.067922354
106	0x3e9252e9	0.2857888
107	0xbdb2de16	-0.08733766
108	0x3dbc08c2	0.09181358
109	0x3d84cc9d	0.064843394
110	0xbea7cd42	-0.32773787
111	0xbe48b581	-0.19600488
112	0xbe67df07	-0.22643672
113	0x3d73cce8	0.059521586
114	0xbe8c88c7	-0.27448103
115	0xbd484481	-0.048893455
116	0x3d5a2c0a	0.053264655
117	0xbe984ec3	-0.2974759
118	0xbe93ae59	-0.28843954
119	0xbe4448fd	-0.19168468
120	0xbd8a5c56	-0.06755893
121	0xbda25252	-0.079258576
122	0xbf25214f	-0.6450395
123	0xbdf2e241	-0.11859561
124	0xbe405e38	-0.18785942
125	0xbcb36818	-0.021900222
126	0xbe1482b2	-0.14502981
127	0x3da3440a	0.07971962
128	0x3de67e8d	0.112546064
129	0xbe029e04	-0.1275559
130	0x3ca291db	0.01984494
131	0xbdf0c510	-0.11756337
132	0xbcfef9b5	-0.031124929
133	0xbe2809e5	-0.16410024
134	0xbea95475	-0.33072248
135	0x3e2ac9b9	0.16678514
136	0xbe06ee3b	-0.13176815
137	0xbd9dd873	-0.077073
138	0x3dcec85e	0.10096811
139	0xbefbb915	-0.49164644
140	0xbea1f31c	-0.3163079
141	0xbe197e92	-0.14989689
142	0x3ea8efb3	0.32995376
143	0xbf1612b3	-0.5862228
144	0xbd67cae2	-0.05658997
145	0xbe13daa1	-0.14438869
146	0x3e084c12	0.13310269
147	0xbe5ecd3c	-0.21757978
148	0xbf07bb53	-0.5302021
149	0xbe11c138	-0.14233863

fc_output.weight f4 [2, 150]
0	0x3ead3052	0.33825928
1	0x3e04c8a5	0.12967165
2	0x3ee9a757	0.45635483
3	0x3ed8d06b	0.4234651
4	0xbd123eb6	-0.035704337
5	0x3e4a80ac	0.19775647
6	0x3e6ea8dc	0.23306602
7	0xbe69c6c1	-0.22829725
8	0x3c48a06e	0.012245281
9	0xb9be2197	-0.0003626465
10	0xbdc302cf	-0.0952202
11	0xbe8f6b23	-0.28011426
12	0xbc029594	-0.0079702325
13	0xbe6ec0b9	-0.23315705
14	0xbe3284b4	-0.17433435
15	0x3ed9dcab	0.4255117
16	0xbd5e644b	-0.054294866
17	0xbe831548	-0.25602174
18	0xbf1eedb1	-0.6208144
19	0x3eac17c7	0.3361189
20	0xbe57a42d	-0.21058722
21	0xbc6b742e	-0.014370961
22	0xbefdcb17	-0.49569008
23	0xbf5a14b8	-0.85187864
24	0xbf79e984	-0.9762194
25	0x3ec9b713	0.39397487
26	0xbf27f0a4	-0.65601563
27	0xbddf2c6f	-0.10897147
28	0xbee5b34b	-0.44863352
29	0xbdf1a113	-0.117983006
30	0x3e4a92b5	0.19782527
31	0x3ea18230	0.31544638
32	0x3eba9b40	0.3644657
33	0x3e947466	0.28995055
34	0x3c4bedd1	0.012446837
35	0xbe55a4fb	-0.20863716
36	0xbc35319c	-0.011059191
37	0xbe0e73bf	-0.13911341
38	0x3f468afa	0.7755581
39	0xbebcf933	-0.36908874
40	0xbea70bab	-0.3262609
41	0xbbd65af8	-0.006541606
42	0xbe07eb3f	-0.13273333
43	0x3c128765	0.008943413
44	0xbd74d4af	-0.059773143
45	0x3ec33302	0.38124853
46	0x3f8cb069	1.0991336
47	0xbc23eeac	-0.010005634
48	0x3ea03c11	0.31295827
49	0x3f47a80d	0.779908
50	0x3f5c63b2	0.8608962
51	0xbe9c4b38	-0.30526137
52	0xbf107aa5	-0.5643714
53	0x3ee000d8	0.43750644
54	0x3c9532ad	0.01821264
55	0xbf23841a	-0.63873446
56	0xbf760fc3	-0.961178
57	0x3eaf457b	0.34232697
58	0x3f3ff607	0.7498478
59	0x3f524281	0.82132727
60	0x3ea35d06	0.3190691
61	0x3e96ac29	0.29428223
62	0x3cbf2f71	0.023338052
63	0x3ccbcd6c	0.024878226
64	0x3dbbc9df	0.09169363
65	0x3f8f5bc8	1.1199884
66	0x3d0fb6eb	0.035086554
67	0xbd97a3eb	-0.07404312
68	0x3f06b8a2	0.5262548
69	0x3f3552f1	0.70829684
70	0xbcc93767	-0.02456255
71	0x3d858ed7	0.06521385
72	0xbf23d56d	-0.63997537
73	0x3e9bc435	0.30423132
74	0xbc3a3bc2	-0.011366786
75	0xbeebb690	-0.46037722
76	0xbf4002ba	-0.7500416
77	0x3f32c277	0.6982798
78	0xbee3119a	-0.44349366
79	0xbe4383ac	-0.19093198
80	0x3e6f7bb4	0.23387033
81	0x3d96cfc8	0.0736385
82	0x3f14c2f9	0.58110005
83	0xbd15db75	-0.036586244
84	0xbe940327	-0.28908655
85	0x3e3102ef	0.17286275
86	0x3d967074	0.073456675
87	0xbf190aba	-0.5978199
88	0x3f1aa8c4	0.60413766
89	0x3d872d56	0.06600444
90	0xbf5005d2	-0.8125888
91	0xbc1bc5be	-0.009507595
92	0x3d5c4e0f	0.05378538
93	0xbd91fe8a	-0.071286276
94	0xbc0ad98e	-0.008474721
95	0x3ecea931	0.40363458
96	0x3e3cf84e	0.18454096
97	0x3f4781f3	0.7793266
98	0x3e4b99fc	0.19882959
99	0xbf012037	-0.5043978
100	0xbd4da734	-0.050208285
101	0x3e9a97f6	0.30194062
102	0x3f0d79fe	0.5526427
103	0x3e7e02d9	0.24805774
104	0xbf8048e1	-1.0022241
105	0x3f56bc1d	0.8388079
106	0xbf4ff23a	-0.81228983
107	0x3f0a276d	0.5396641
108	0xbd16372e	-0.036673717
109	0xbf0931ce	-0.5359162
110	0x3ca87d93	0.020567691
111	0x3eadabed	0.3392023
112	0x3e06ab83	0.13151364
113	0x3ea32929	0.3186734
114	0xbf1e2da0	-0.6178837
115	0x3a196831	0.00058520125
116	0x3d5bd8ed	0.053673673
117	0x3e70bb49	0.23508944
118	0x3f0b18a4	0.54334474
119	0x3f348118	0.7050948
120	0xbc1605b5	-0.009156634
121	0xbb89300f	-0.0041866372
122	0xbf0aa659	-0.54160076
123	0xbdad6362	-0.084662214
124	0xbed6a349	-0.41921452
125	0x3e9783d8	0.29592776
126	0x3e4f638b	0.20252816
127	0x3d1ed829	0.038780365
128	0xbe7ab908	-0.24484646
129	0xbf2c1c3e	-0.67230594
130	0x3c76aa0c	0.015055191
131	0xbf44cfa3	-0.7687933
132	0xbc8b5972	-0.017010424
133	0xbf045966	-0.5169891
134	0xbe922b56	-0.28548688
135	0x3fbfa328	1.4971666
136	0xbeb6f546	-0.35734004
137	0x3da69018	0.081329525
138	0x3f051520	0.5198536
139	0x3f359192	0.7092525
140	0x3e5afbb3	0.21385078
141	0x3f806772	1.0031569
142	0xbefef51b	-0.49796376
143	0x3f306adf	0.6891307
144	0x3f34e627	0.70663685
145	0xbf17f765	-0.5936187
146	0xbe836fb2	-0.25671154
147	0x3e6e3153	0.23261003
148	0x3f23c831	0.6397734
149	0x3e661325	0.2246824
150	0x3f1f2af8	0.6217494
151	0x3f00d45a	0.5032402
152	0xbf8e10bd	-1.1098858
153	0xbe51e83b	-0.20498745
154	0x3c5d5c3e	0.013510762
155	0x3f565ba7	0.837336
156	0xbf344188	-0.7041249
157	0x3eca6baa	0.39535266
158	0xbf96b007	-1.1772469
159	0x3b76fdb0	0.003768783
160	0x3eed49f6	0.4634549
161	0x3e90326f	0.28163478
162	0xbd04ab1d	-0.03238975
163	0xbe4bb26b	-0.1989228
164	0xbf2d83fb	-0.6777951
165	0xbf619ef6	-0.8813318
166	0xbfa7a5b1	-1.309744
167	0xbe0b0c9a	-0.13579026
168	0x3f5ee09e	0.8706149
169	0xbf2d3362	-0.6765653
170	0xbfd49b5e	-1.6609914
171	0x3ca76f22	0.020438734
172	0xbd9f0884	-0.07765296
173	0x3e1a11b6	0.15045819
174	0x3e6ec8c9	0.23318781
175	0xbe023705	-0.12716301
176	0xbedbe3a7	-0.42947122
177	0xbea69fdf	-0.32543847
178	0xbedb63de	-0.4284963
179	0x3c878e8c	0.016547464
180	0xbf453073	-0.7702705
181	0x3e9efe14	0.3105322
182	0xbf80685b	-1.0031847
183	0x3f609797	0.8773131
184	0x3e804ed8	0.25060153
185	0x3ee1f0d4	0.4412905
186	0x3b809c64	0.003924893
187	0x3f59ab80	0.85027313
188	0xbe004d56	-0.12529501
189	0x3f4fe68e	0.81211174
190	0x3e2d3165	0.16913374
191	0x3ba548d3	0.0050440817
192	0x3f0316cd	0.51206666
193	0x3b0fd332	0.002194595
194	0xbcc67b87	-0.024228824
195	0xbf8e5b1c	-1.1121554
196	0x3f528379	0.8223186
197	0xbd428fca	-0.04750041
198	0xbf03de52	-0.5151111
199	0xbf9059d9	-1.1277419
200	0xbf31e18d	-0.6948479
201	0x3ea20b52	0.31649262
202	0x3da5a56e	0.08088194
203	0x3f1dbe8a	0.61618865
204	0x3d1f92ae	0.038958244
205	0x3edc0739	0.4297426
206	0x3f883436	1.0640934
207	0xbe47cefb	-0.1951255
208	0xbfad6c21	-1.3548623
209	0xbe0ffd5e	-0.14061496
210	0xbf1769b7	-0.59145683
211	0xbeb94706	-0.36187
212	0x3d62c638	0.055364817
213	0x3b9f4c9b	0.004861427
214	0x3d7661fd	0.060152043
215	0xbf07c96a	-0.5304171
216	0x3cb8addf	0.022543846
217	0x3e1c2aa6	0.15250644
218	0xbf92c861	-1.1467401
219	0x3f2db454	0.67853284
220	0xbc4b8d22	-0.012423785
221	0x3dfd9f82	0.12383939
222	0x3f2013f7	0.62530464
223	0xbd7e167b	-0.062033158
224	0x3c45f369	0.012081959
225	0xbe1d5a3f	-0.15366457
226	0xbe9abecb	-0.30223688
227	0x3d514ddc	0.051099643
228	0xbf2da9ec	-0.67837405
229	0xbf3efb6c	-0.7460239
230	0x3f0115a3	0.5042364
231	0x3e66c076	0.22534356
232	0xbf36a28f	-0.71341795
233	0x3f65b02d	0.8972195
234	0x3f9847f2	1.1896956
235	0xbd07d5b6	-0.033162795
236	0xbf63c0a1	-0.88965803
237	0xbec576d9	-0.38567236
238	0x3dc94872	0.09828271
239	0xbf257aa9	-0.6464029
240	0xbd7717cf	-0.06032544
241	0x3d0a3b81	0.033748154
242	0x3d82c7e8	0.06385785
243	0x3de17695	0.11008946
244	0xbb88d3ff	-0.0041756625
245	0x3e70f129	0.23529495
246	0x3f693a2f	0.91104406
247	0xbe16d082	-0.14727977
248	0x3f4445c8	0.7666898
249	0x3db880f7	0.09008973
250	0x3f99df04	1.2021184
251	0xbf164141	-0.5869332
252	0xbf101944	-0.5628855
253	0x3eea9fcd	0.45825043
254	0x3ee0a520	0.4387598
255	0x3e9eeeef	0.31041667

fc_output.bias f4 [2]
0	0xbe646378	-0.2230357
1	0x3df0947c	0.11747071

fc_input.weight f4 [200, 24]
0	0x3f0e6175	0.5561746
1	0xbe125c34	-0.14292985
2	0x3e2286b5	0.15871699
3	0x3e37f083	0.17962842
4	0x3ebb5906	0.36591357
5	0xbec53806	-0.38519305
6	0x3e248617	0.16066776
7	0x3e4409cc	0.19144362
8	0x3ea37584	0.31925595
9	0xbe5c146e	-0.21492168
10	0xbe51859c	-0.20461124
11	0xbe8f9a99	-0.28047636
12	0x3f1ba336	0.60795915
13	0xbe0d3485	-0.13789566
14	0xbe3288c3	-0.17434983
15	0xbe5c06ab	-0.21486919
16	0x3ef0df21	0.47045234
17	0x3dc23150	0.09482062
18	0x3e47a408	0.19496167
19	0x3d9cb526	0.07651739
20	0x3ed3922c	0.41322458
21	0xbb89caa8	-0.0042050667
22	0x3e2844a7	0.16432439
23	0x3e2b58d6	0.16733107
24	0x3eb3f58f	0.35148284
25	0x3eb5c6af	0.35503146
26	0xbe59dafb	-0.2127494
27	0x3e31fd19	0.17381705
28	0x3e17b3de	0.14814708
29	0x3e3a2c78	0.18181026
30	0xbdc42e17	-0.095791034
31	0x3dde826d	0.108647205
32	0x3f01ee52	0.5075427
33	0x3eef257d	0.4670829
34	0x3e224fa7	0.15850697
35	0xbe94bc30	-0.29049826
36	0x3f23abf3	0.6393425
37	0x3e49e083	0.1971455
38	0x3e87075c	0.26372802
39	0xbe7dae91	-0.24773623
40	0x3f317619	0.6932083
41	0x3f406ad6	0.7516302
42	0xbe3de1b4	-0.1854313
43	0x3e4fa248	0.20276749
44	0x3f6dc657	0.9288077
45	0xbd71ab31	-0.05900115
46	0xbe82e3de	-0.25564474
47	0x3e4b3e92	0.19848087
48	0xbe02941f	-0.12751816
49	0x3d9eb81d	0.077499606
50	0xbe8128e9	-0.25226524
51	0x3d6ba1ee	0.057527475
52	0xbe8c4d6d	-0.2740282
53	0xbf6e38fb	-0.93055695
54	0xbe67ee07	-0.22649394
55	0x3d93a724	0.07209614
56	0x3c90bec4	0.01766909
57	0x3dba87e9	0.09107954
58	0xbdf009e4	-0.117206365
59	0xbe2d87e4	-0.1694637
60	0xbdacd41a	-0.08438893
61	0xbfa978ab	-1.323995
62	0xbe1526fb	-0.14565651
63	0xbdf7c476	-0.12098019
64	0xbe557e03	-0.20848851
65	0x3e834507	0.256386
66	0xbe0be1f9	-0.1366042
67	0x3e516729	0.20449509
68	0x3e2f681c	0.17129558
69	0xc004deb5	-2.076093
70	0xbe60a260	-0.21936941
71	0x3e5b1d33	0.21397857
72	0x3dd9cd4b	0.1063486
73	0x3f6bccfe	0.9210967
74	0xbdbdd4a5	-0.09269074
75	0xbe78d892	-0.24301365
76	0x3e923456	0.28555554
77	0xbf56fc64	-0.8397887
78	0xbe02c501	-0.12770464
79	0xbe808d36	-0.25107735
80	0x3ec1f022	0.3787852
81	0x3f9194be	1.1373518
82	0xbe269e8b	-0.16271417
83	0x3e1464d4	0.14491588
84	0xbe11274b	-0.14175145
85	0xbfb96d2b	-1.448644
86	0xbda8e94c	-0.08247623
87	0x3e4cb61d	0.19991346
88	0x3f21dfd1	0.6323214
89	0x3f6a4164	0.9150603
90	0xbd5dcd73	-0.05415101
91	0xbf54c2fe	-0.83110034
92	0xbe9b07c0	-0.3027935
93	0xbfa87a79	-1.3162376
94	0xbdac7477	-0.084206514
95	0xbf44c117	-0.7685713
96	0x3c47df7f	0.012199282
97	0x3f26e2f0	0.6519003
98	0xbeaf48c1	-0.34235194
99	0xbf40ca65	-0.7530883
100	0x3d86d77d	0.0658407
101	0xbe882c06	-0.26596087
102	0xbea79378	-0.32729697
103	0xbf568b9b	-0.8380677
104	0xbd9fe843	-0.07807972
105	0x3ea2b6fc	0.3178023
106	0x3d36084c	0.044441506
107	0xbf50bf13	-0.81541556
108	0xbe5b2a25	-0.21402796
109	0xbe5354d6	-0.20637831
110	0x3cf4727d	0.029839749
111	0xbf46dcd4	-0.77680707
112	0x3d07dc05	0.03316881
113	0x3e22bab3	0.15891533
114	0xbe5b7996	-0.214331
115	0xbe17a82e	-0.14810249
116	0xbec9ea51	-0.39436582
117	0xbe92f582	-0.28702933
118	0xbe8c1e1b	-0.2736672
119	0xbe6606f5	-0.22463591
120	0x3f392a25	0.7232993
121	0x3f7b2196	0.98098123
122	0xbe2290cb	-0.15875547
123	0xbdf99298	-0.12186164
124	0x3f385c7f	0.7201614
125	0xbd881439	-0.06644482
126	0xbe4a0799	-0.19729461
127	0xbe380969	-0.1797234
128	0x3f1a3b03	0.60246295
129	0x3f37d2e3	0.7180616
130	0x3cca4527	0.024691178
131	0xbe5707a6	-0.20999011
132	0x3f1d564a	0.6145979
133	0xbea4675e	-0.32110113
134	0x3d57f670	0.052725255
135	0xbe8f144d	-0.27945176
136	0x3ee19e85	0.44066253
137	0x3eb7a4fb	0.35868058
138	0xbe2ecad8	-0.17069566
139	0xbf008652	-0.50204957
140	0x3eeeac65	0.46615902
141	0xbf089517	-0.53352493
142	0xbd79350b	-0.0608416
143	0xbf2075e4	-0.62679887
144	0x3f5f8035	0.87305003
145	0x3eb445aa	0.352094
146	0xbe2c3cdd	-0.16820092
147	0xbecd4241	-0.4008961
148	0x3ecf7042	0.40515333
149	0xbe17a814	-0.1481021
150	0xbe76c3fd	-0.24098201
151	0xbec4d35c	-0.38442504
152	0x3f36cca9	0.71406037
153	0x3eb722d1	0.3576875
154	0xbdeaee74	-0.114712626
155	0xbeb95284	-0.36195767
156	0x3eeb93c0	0.46011162
157	0xbe7d7a56	-0.24753699
158	0xbd9ce995	-0.0766174
159	0xbea29a20	-0.31758213
160	0x3f3ed2c6	0.74540365
161	0x3ea9c821	0.331605
162	0xbe613695	-0.21993478
163	0xbe82bd3b	-0.25534996
164	0x3ef3fac6	0.47652262
165	0xbd931d94	-0.07183376
166	0xbe218cf3	-0.15776424
167	0xbe865e1e	-0.2624368
168	0x3f8acf1a	1.0844452
169	0xbedca486	-0.4309427
170	0x3df0a2ef	0.11749827
171	0xbea75485	-0.3268167
172	0x3e9d1c1f	0.30685517
173	0xbf15a53a	-0.5845524
174	0x3dd5a497	0.10431784
175	0xbea1666d	-0.31523457
176	0x3f4b5391	0.7942439
177	0xbf1467eb	-0.57971066
178	0xbe9821de	-0.2971334
179	0x3dad999f	0.084765665
180	0xbed1d0c7	-0.40979597
181	0xbf195ea7	-0.59910053
182	0xbe7b1f8c	-0.24523753
183	0xbc818837	-0.015812023
184	0x3eed83c4	0.46389592
185	0xbf5d122d	-0.8635586
186	0xbc4b0aac	-0.012392681
187	0xbed909c4	-0.42390263
188	0xbf85c54b	-1.0450834
189	0xbe2cb134	-0.16864473
190	0x3c2ffbb8	0.010741167
191	0xbef5e4f0	-0.48026228
192	0x3e952100	0.2912674
193	0x3ebb95bd	0.3663768
194	0x3e324387	0.17408572
195	0xbf017359	-0.5056663
196	0x3e9063ff	0.2820129
197	0x3df2ccd9	0.11855478
198	0x3dffdcfb	0.124933206
199	0xbf0c9e04	-0.5492861
200	0x3eb04218	0.34425426
201	0x3ddc500d	0.10757456
202	0x3d47144b	0.048603337
203	0xbea7b5db	-0.32755932
204	0xbe2dc970	-0.16971374
205	0x3e71a11c	0.23596615
206	0x3da7e5ac	0.08198103
207	0xbe9d90a1	-0.30774406
208	0x3dcdb8b5	0.10044996
209	0xbe97e313	-0.2966543
210	0xbc41c293	-0.011826175
211	0xbf511c91	-0.81684214
212	0xbefc13c3	-0.49233827
213	0x3f210664	0.62900376
214	0x3d80dddf	0.062923186
215	0xbf5f4206	-0.8721012
216	0x3f0825ad	0.5318249
217	0xbf20277a	-0.62560236
218	0xbdcac853	-0.0990149
219	0xbd600854	-0.054695442
220	0xbf2331f2	-0.63748085
221	0xbef6b3e5	-0.48184124
222	0xbe0c11a8	-0.1367861
223	0xbc000fce	-0.007816268
224	0x3efb297f	0.49055097
225	0xbf29259d	-0.6607302
226	0xbda2ad79	-0.079432435
227	0x3aea59a8	0.0017879503
228	0xbf642ac7	-0.89127773
229	0xbefda8f0	-0.49542952
230	0xbcf8cc74	-0.030370928
231	0x3c4ec78f	0.012620821
232	0x3ea1021d	0.31446925
233	0xbf5a53a2	-0.85283864
234	0xb88a2e02	-6.5889224e-05
235	0xbd98980f	-0.07450878
236	0xbf9fd450	-1.2486668
237	0x3e8cc7e6	0.2749626
238	0x3ad01933	0.001587665
239	0xbc118446	-0.008881634
240	0x3e9aa7b0	0.3020606
241	0xbf57b64a	-0.84262526
242	0xbe588f12	-0.21148327
243	0xbc909fdf	-0.017654357
244	0xbe45ff8d	-0.19335766
245	0xbf1dd37b	-0.6165082
246	0xbe68c71e	-0.22732207
247	0xbd8fbc26	-0.07018308
248	0x3e88e510	0.2673726
249	0xbf8fe654	-1.1242166
250	0xbca66994	-0.020314015
251	0xbedff685	-0.43742767
252	0x3f08c28f	0.5342187
253	0xbecbb4ed	-0.39786473
254	0xbde6a38c	-0.11261663
255	0xbee42c25	-0.4456493

fc_input.bias f4 [200]
0	0xbf13a8b0	-0.5767927
1	0xbf8a9006	-1.0825202
2	0xbe875a57	-0.2643611
3	0xbea090c3	-0.31360444
4	0xbea00924	-0.31256974
5	0xbe554ea9	-0.20830788
6	0xbf208a67	-0.62711185
7	0xbe001a00	-0.12509918
8	0x3c7c2fab	0.015392224
9	0x3ea2b9e2	0.31782442
10	0xbea8334a	-0.3285163
11	0x3edfc37b	0.43703827
12	0xbd2355c3	-0.03987671
13	0xbe63e674	-0.2225588
14	0xbf35bf04	-0.7099459
15	0xbf2e2a5b	-0.6803338
16	0xbec562b5	-0.3855187
17	0x3e2523f6	0.16127
18	0xbe862bc2	-0.2620526
19	0x3ee36c71	0.44418672
20	0xbeb1cefe	-0.34728235
21	0x3e96cf41	0.29454997
22	0xbf34bfa9	-0.7060495
23	0xbef315f6	-0.47477692
24	0xbd18d5ab	-0.037313145
25	0xbe0b12b9	-0.13581361
26	0xbe74a484	-0.23890883
27	0xbf0e03dc	-0.5547464
28	0xbf17d004	-0.5930178
29	0xbe998c09	-0.2998965
30	0xbea87072	-0.3289829
31	0xbf15eb60	-0.5856228
32	0xbe4e7138	-0.20160377
33	0xbea7a31e	-0.32741636
34	0xbe7ae0d0	-0.24499822
35	0xbf0a93c3	-0.54131716
36	0xbe27d913	-0.16391401
37	0x3d969ab6	0.073537275
38	0xbe27952e	-0.16365501
39	0xbf33f737	-0.70299095
40	0xbed981f8	-0.4248197
41	0x3d94b9c4	0.072619945
42	0xbe6519b2	-0.22373083
43	0xbec3980c	-0.3820194
44	0xbe87db33	-0.26534423
45	0x3e6173a1	0.22016765
46	0xbe3073b2	-0.17231634
47	0xbf23af7f	-0.6393966
48	0xbe8bcaf9	-0.27303293
49	0xbe905f22	-0.2819758
50	0xbe41e258	-0.18934
51	0xbea45dea	-0.321029
52	0x39d11937	0.00039882373
53	0xbe2f686a	-0.17129675
54	0xbdcc15e8	-0.09965116
55	0xbe353620	-0.17696428
56	0xbde62c53	-0.11238923
57	0xbe8b49d7	-0.27204773
58	0xbe7b5462	-0.24543908
59	0xbf152685	-0.582619
60	0xbd54a93e	-0.051919214
61	0x3e90a7d1	0.28253034
62	0xbf1e4ef5	-0.6183923
63	0xbe5d10dd	-0.21588464
64	0xbe02a0f8	-0.12756717
65	0x3e9bd1e5	0.30433574
66	0xbf0d4ac3	-0.551922
67	0xbea71b26	-0.326379
68	0xbe128f02	-0.14312366
69	0xbea98c06	-0.33114642
70	0xbe328302	-0.17432788
71	0xbf1cf33b	-0.6130864
72	0xbea5f08f	-0.32410094
73	0xbf6209c8	-0.88296175
74	0xbe271e75	-0.16320212
75	0xbe816507	-0.2527239
76	0xbf11369a	-0.5672394
77	0xbe21fdd8	-0.1581949
78	0xbeb59b2c	-0.3546995
79	0xbe075167	-0.13214646
80	0xbd91b4dd	-0.07114575
81	0xbde871d5	-0.11349837
82	0xbdc4c555	-0.096079506
83	0xbd642064	-0.055694953
84	0xbe71d852	-0.23617676
85	0xbe4205ba	-0.18947497
86	0x3df43cc9	0.11925656
87	0xbf301ba9	-0.68792206
88	0x3bb5fa34	0.005553508
89	0xbe0e2e50	-0.13884854
90	0xbf006530	-0.501544
91	0xbec71e30	-0.3889022
92	0xbf0e0a82	-0.55484784
93	0xbec03c46	-0.37545985
94	0xbf03ddc0	-0.5151024
95	0xbf04d776	-0.5189127
96	0x3e448b10	0.19193673
97	0xbf11234d	-0.5669449
98	0xbe497e6d	-0.19677134
99	0x3d359a02	0.044336326
100	0xbf05c49a	-0.52253115
101	0xbf041908	-0.51600695
102	0xbd879e1d	-0.066219546
103	0xbe8faa6c	-0.2805971
104	0xbea57f46	-0.32323664
105	0xbf6f32b1	-0.93436724
106	0xbee601aa	-0.44923145
107	0xbd712a24	-0.05887808
108	0xbeb65be7	-0.3561699
109	0xbda801f5	-0.08203498
110	0xbde10ec9	-0.10989148
111	0xbcbdec22	-0.023183886
112	0xbec4d7e6	-0.38445967
113	0xbea8b914	-0.32953703
114	0xbee2190f	-0.44159743
115	0xbf4bf1d3	-0.7966587
116	0xbeffd097	-0.4996383
117	0xbf349a26	-0.7054771
118	0xbe990a43	-0.29890642
119	0xbef24617	-0.473191
120	0xbe8c29ce	-0.27375644
121	0xbf03cc8f	-0.51484007
122	0xbf4c7eef	-0.79881185
123	0xbeb9d1d7	-0.36292908
124	0xbf001245	-0.5002788
125	0xbe7e28b8	-0.2482022
126	0xbef418d2	-0.47675186
127	0x3d966bbf	0.0734477
128	0x3e106017	0.14099155
129	0xbf2ae839	-0.66760594
130	0xbe9291b5	-0.2862679
131	0x3cd18eb4	0.025580741
132	0x3e12bd41	0.14330007
133	0xbeb89d06	-0.360573
134	0xbf51efc9	-0.8200651
135	0xbe5fa054	-0.21838504
136	0xbd3e29ba	-0.046426512
137	0xbe515b02	-0.20444873
138	0xbeddfe0b	-0.43357882
139	0xbea3cec7	-0.31993696
140	0x3b37ef32	0.0028066156
141	0xbe56385f	-0.20919941
142	0xbe496e2a	-0.1967093
143	0xbe7377ae	-0.23776123
144	0xbf2a4fd0	-0.66528034
145	0xbf45b7fe	-0.77233875
146	0xbf1214e8	-0.5706315
147	0xbf144a17	-0.5792555
148	0x3f03c415	0.5147107
149	0xbe05eaeb	-0.13077895
150	0xbbe19740	-0.0068844855
151	0x3dd1cc53	0.1024405
152	0xbea9271f	-0.3303766
153	0x3d865512	0.065591946
154	0xbd8aa526	-0.06769781
155	0xbe9995cf	-0.29997107
156	0x3e96133a	0.29311544
157	0xbf09abf1	-0.53777987
158	0xbe9543cf	-0.29153296
159	0xbf1ac46e	-0.6045598
160	0xbe9186ea	-0.28423244
161	0xbf17689a	-0.59143984
162	0xbe06d429	-0.1316687
163	0x3cd342f2	0.025788758
164	0xbe9d31b7	-0.30701992
165	0xbed39380	-0.4132347
166	0xbeb493a9	-0.35268906
167	0xbeaecb8a	-0.34139663
168	0xbe7301fb	-0.23731224
169	0xbf071a48	-0.52774477
170	0x3d5be684	0.053686634
171	0xbd313bdc	-0.043269977
172	0xbe150d06	-0.1455575
173	0xbe270545	-0.16310604
174	0x3cb8d5f0	0.02256295
175	0x3e8b54ab	0.27213034
176	0xbe8039fd	-0.25044242
177	0x3e377cac	0.17918652
178	0xbeff0725	-0.49810138
179	0xbea98b50	-0.331141
180	0xbf4b3000	-0.7937012
181	0xbf1ca5bb	-0.61190385
182	0xbee814c4	-0.45328343
183	0xbf0b301b	-0.5437028
184	0xbee73ae2	-0.45162112
185	0xbd968a21	-0.07350565
186	0x3eb2cf07	0.34923574
187	0xbeee0c5c	-0.46493804
188	0xbeb2b7e0	-0.3490591
189	0x3db7edf5	0.089809336
190	0xbf17f3e6	-0.59356534
191	0xbe864b23	-0.262292
192	0xbe691b42	-0.22764304
193	0xbf147fcd	-0.5800751
194	0xbe838085	-0.2568399
195	0xbf10bd42	-0.56538785
196	0xbeb0e93c	-0.34552944
197	0xbf2eff3b	-0.683582
198	0xbe27512b	-0.16339557
199	0xbf204666	-0.6260742

hidden.weight f4 [150, 200]
0	0x3d5ca3aa	0.05386702
1	0xbe199b2a	-0.15000597
2	0xbf5681d4	-0.8379185
3	0xbc8bfc34	-0.017088033
4	0x3f1ecaa6	0.62027967
5	0xbcb95225	-0.022622177
6	0xbe83addb	-0.2571858
7	0x3f87d0c1	1.0610582
8	0x3d829303	0.063756965
9	0xbe94c7ac	-0.29058588
10	0xbf06d717	-0.5267195
11	0xbf31a107	-0.69386333
12	0xbeb74f93	-0.35802898
13	0x3f972ccc	1.1810546
14	0xbecdc77b	-0.40191254
15	0x3dde2fc2	0.10848953
16	0x3f002588	0.5005727
17	0x3da7070f	0.08155643
18	0x3ed14e64	0.4088012
19	0xbf602abf	-0.87565225
20	0xbe57d8cc	-0.21078795
21	0x3dc010ff	0.09378242
22	0x3f134a38	0.57535124
23	0x3f0c4796	0.5479673
24	0x3e4fe775	0.20303138
25	0xbe93a8ab	-0.2883962
26	0xbea71411	-0.32632497
27	0x3edbf76d	0.42962208
28	0x3f1027eb	0.5631091
29	0xbe62c848	-0.22146714
30	0xbe160bee	-0.14652988
31	0xbefc60c1	-0.49292567
32	0xbe083b0d	-0.13303776
33	0xbf15c5d6	-0.58505
34	0xbee525e0	-0.4475546
35	0x3e682707	0.22671138
36	0xbf4123ca	-0.75445235
37	0xbed3bb9c	-0.41354072
38	0x3f22d917	0.636125
39	0xbc87af16	-0.01656298
40	0xbed81114	-0.4220053
41	0x3f12fcc5	0.57416946
42	0x3e4bda33	0.19907455
43	0xbee48731	-0.44634393
44	0xbc5aa0e9	-0.013344028
45	0xbed6abd5	-0.41927972
46	0xbe351399	-0.17683257
47	0xbf55279f	-0.8326358
48	0xbfca5cc9	-1.5809566
49	0x3ed87694	0.42277968
50	0xbf492d66	-0.785849
51	0xbecba488	-0.39773965
52	0xbd24a6ee	-0.04019826
53	0xbe3d576f	-0.18490385
54	0xbf0be046	-0.5463909
55	0xbf9fbc88	-1.247941
56	0x3e89940b	0.2687076
57	0xbebd2ff3	-0.36950645
58	0xbde4cf17	-0.11172312
59	0xbec9bfa0	-0.3940401
60	0xbf4c9aeb	-0.79923886
61	0xbfb3069e	-1.3986394
62	0xbf3a6681	-0.7281266
63	0x3f000b97	0.50017685
64	0x3dd04cc4	0.10170892
65	0xbf091f7e	-0.5356368
66	0xbeb21acd	-0.34786072
67	0xbec33703	-0.38127908
68	0xbe2ed2f7	-0.17072664
69	0xbe179cb3	-0.1480587
70	0xbe7597e3	-0.23983721
71	0xbeb3ba57	-0.35103104
72	0xbd3d37a2	-0.046195634
73	0xbf3826d7	-0.71934265
74	0xbd236370	-0.039889753
75	0xbe467e92	-0.1938422
76	0x3de33dc1	0.11095763
77	0xbed62955	-0.4182841
78	0x3f0c3069	0.5476137
79	0x3cbc8d68	0.023016647
80	0xbe5351b0	-0.2063663
81	0x3db647c2	0.089004055
82	0xbe8f8b94	-0.28036177
83	0xbf12a36a	-0.572806
84	0x3da7317b	0.081637345
85	0xbe337b42	-0.17527488
86	0x3f443dae	0.76656616
87	0x3c97cedc	0.018531255
88	0xbc46a919	-0.012125277
89	0xbd9d98c9	-0.07695157
90	0x3ea97855	0.3309962
91	0x3db70444	0.089363605
92	0x3dc2981e	0.0950167
93	0xbe161a0c	-0.14658374
94	0xbedb1b64	-0.42794335
95	0x3e08e302	0.13367847
96	0xbe4c0392	-0.19923237
97	0x3e152f29	0.14568771
98	0x3d1e143c	0.038593516
99	0xbf953ba9	-1.1658832
100	0x3e94fec0	0.2910061
101	0xbdf4e495	-0.11957661
102	0xbf394452	-0.72369874
103	0x3dbfd285	0.09366325
104	0xbe93380d	-0.287537
105	0x3a758177	0.00093653
106	0x3f110240	0.5664406
107	0x3f2842e1	0.6572705
108	0xbf58a133	-0.8462097
109	0xbf90edb6	-1.1322544
110	0xbebf5ae2	-0.37374026
111	0xbf05eb4e	-0.5231217
112	0x3f03ab56	0.5143331
113	0xbf87b939	-1.06034
114	0xbf3fb6d7	-0.74888366
115	0xbf247f26	-0.64256513
116	0x3e4135f6	0.1886824
117	0x3d248f6b	0.040175837
118	0x3e6edaa6	0.23325595
119	0xbe3439d9	-0.17600192
120	0x3e98d2b7	0.29848263
121	0xbe0b508c	-0.13604945
122	0x3d515578	0.0511069
123	0x3eb8a972	0.36066777
124	0x3f23c543	0.6397287
125	0x3deb9a96	0.11504094
126	0xbf5fa3d0	-0.87359333
127	0x3dd053bd	0.10172222
128	0xbee74b62	-0.451747
129	0xbe17fd41	-0.14842702
130	0x3d75a916	0.059975706
131	0x3e668ac7	0.22513877
132	0xbf865c12	-1.0496848
133	0xbf81e00c	-1.0146499
134	0xbeeb4bd6	-0.45956296
135	0xbf0a501d	-0.54028493
136	0xbf8a12c7	-1.078698
137	0xbce17484	-0.02752138
138	0xbdd59dee	-0.10430513
139	0xbf61ee59	-0.88254315
140	0xbf38db87	-0.7220997
141	0xbee09851	-0.43866208
142	0xbedf31a5	-0.43592563
143	0x3f27eb05	0.65592986
144	0xbe4bc38c	-0.19898814
145	0x3f01ff04	0.5077975
146	0x3d25e89a	0.04050503
147	0x3ea7f7db	0.32806286
148	0xbc5f544d	-0.013630939
149	0xbf26b413	-0.6511852
150	0x3f0a811e	0.5410327
151	0xbf1eaaf6	-0.61979616
152	0x3e867389	0.2626002
153	0xbe6f9a2f	-0.2339866
154	0xbed158e2	-0.40888125
155	0x3ea05f2e	0.31322616
156	0x3f057d4f	0.5214433
157	0x3eede128	0.46460843
158	0xbdf4b087	-0.119477324
159	0x3efd1cb2	0.49435955
160	0xbe17f0c3	-0.14837937
161	0x3e415df0	0.1888349
162	0xbf0b053f	-0.5430488
163	0xbda1aa86	-0.07893853
164	0x3d787fc6	0.06066873
165	0xbefd8484	-0.49515164
166	0x3eb44851	0.35211423
167	0x3da84d8a	0.082179144
168	0xbe2892f7	-0.16462313
169	0xbeefc84f	-0.4683251
170	0xbf2d3a2d	-0.67666894
171	0xbe9fdcce	-0.31223148
172	0xbf88b1c1	-1.0679246
173	0xbcde8cef	-0.027166812
174	0x3ebdd73e	0.3707828
175	0x3f019c21	0.5062886
176	0x3ea99a49	0.33125523
177	0xbeb83ff2	-0.35986286
178	0xbfc15488	-1.5103922
179	0xbee33b01	-0.44380954
180	0x3d889ad5	0.06670157
181	0xbf1d3a24	-0.6141684
182	0x3e90ceea	0.28282863
183	0x3e0c4859	0.13699473
184	0x3ef83833	0.48480377
185	0x3e53d95b	0.20688383
186	0xbf0e18b4	-0.55506444
187	0x3f0be8a8	0.5465188
188	0xbf075565	-0.52864677
189	0xbef84861	-0.4849272
190	0xbe505f57	-0.2034887
191	0xbf141bf6	-0.57855165
192	0xbf013152	-0.5046588
193	0x3d431b38	0.04763338
194	0x3de6a82c	0.11262545
195	0x3e17a384	0.1480847
196	0xbf27c115	-0.65528995
197	0x3e4a13d4	0.19734126
198	0xbf329e77	-0.6977305
199	0xbe9c9a60	-0.3058653
200	0xbd871d74	-0.065974146
201	0x3d60bc8f	0.054867323
202	0xbda8cd56	-0.0824229
203	0x3e2bc10d	0.16772862
204	0x3ea2ae97	0.31773826
205	0x3e682263	0.22669367
206	0x3d9443f7	0.07239526
207	0xbf27d4c6	-0.6555904
208	0xbf0e3247	-0.5554547
209	0x3ea70d02	0.32627112
210	0x3d557394	0.052112177
211	0xbf30fba3	-0.6913397
212	0xbd05759e	-0.03258287
213	0xbe83e796	-0.25762624
214	0xbc34e761	-0.011041493
215	0x3dfe1ce8	0.12407857
216	0x3f070bf1	0.52752596
217	0xbeb1f447	-0.3475668
218	0xbd337b97	-0.043819036
219	0xbeb8b733	-0.3607727
220	0xbdaff0ac	-0.085908264
221	0xbf2977af	-0.6619825
222	0xbebe76dd	-0.3720006
223	0xbf081d95	-0.5317014
224	0x3ec356c0	0.38152122
225	0xbe34f34b	-0.17670934
226	0x3e239952	0.15976456
227	0x3e5ae10f	0.21374916
228	0x3ed19829	0.409364
229	0xbe12408f	-0.1428244
230	0x3e2f7b6d	0.17136927
231	0x3e2eeca8	0.17082465
232	0xbf2bd28a	-0.6711813
233	0xbe750787	-0.23928653
234	0xbe96b42e	-0.2943434
235	0x3e9d690e	0.30744213
236	0xbf4f7dbb	-0.81051224
237	0xbe77783c	-0.2416696
238	0xbeb9c8d2	-0.36286026
239	0x3f43b073	0.76441115
240	0x3cc4697d	0.023976082
241	0xbe930035	-0.28711095
242	0xbeeda73f	-0.4641666
243	0xbd5d1318	-0.053973287
244	0xbee3cdb9	-0.4449289
245	0xbdf7e334	-0.121038824
246	0x3e83c641	0.25737193
247	0x3d31370a	0.04326538
248	0xbea1f00a	-0.31628448
249	0x3e16f6a7	0.14742528
250	0x3e84e6be	0.25957292
251	0x3e20614c	0.15662116
252	0xbe71b7dd	-0.23605295
253	0x3e97a772	0.29619938
254	0x3de474ad	0.11155067
255	0xbd6466f0	-0.05576223
