final_score.pth (torch, 618543 bytes, 22 tensors)

fc_input.weight f4 [200, 24]
000000 12 80 3b 3f 48 3a 05 be 97 0c 5b 3d 22 37 e1 3e
       0.73242295 -0.13010514 0.053478803 0.43987375
000010 27 21 30 3e 55 de 40 bf f8 09 63 3d c8 43 e7 3e
       0.17200147 -0.7533925 0.05542943 0.451689
000020 61 d6 22 3f d7 4d 02 3e 3f 81 a8 bd 7a 1e c1 bc
       0.63608366 0.12725006 -0.08227777 -0.023574103
000030 7e f4 ce 3d 60 29 46 bf 76 0d 55 bd 32 2b 2c 3d
       0.10105227 -0.77406883 -0.05201479 0.04203338
000040 35 93 3e 3f aa 85 96 3e af 01 c6 3c d4 39 c7 bd
       0.7444337 0.29398853 0.024170725 -0.09727827
000050 29 67 85 3d 98 09 41 bf ff f0 d3 bb 30 cf d3 bb
       0.06513817 -0.75405264 -0.006467938 -0.0064639077
000060 1c 6a 08 3e d9 80 25 3e 70 94 9e be 75 f0 e4 be
       0.13321728 0.16162433 -0.30972624 -0.44714704
000070 37 6a 76 3e e1 f3 25 bf 6b 65 45 be db 26 03 bf
       0.24063955 -0.64825255 -0.19276969 -0.51231164
000080 ca 78 83 3e e2 67 fa 3d 83 51 21 3e 9d ea a6 3d
       0.25678092 0.12226845 0.1575375 0.08150218
000090 77 35 82 bd ed 32 25 bf 38 88 86 3e e2 7d fe 3d
       -0.06357854 -0.6453083 0.26275802 0.12426354
0000a0 32 57 7c 3e b2 a5 8d 3e f9 73 4b be 19 58 2c be
       0.24642637 0.27665478 -0.19868459 -0.16830482
0000b0 cc 02 9a be 7d 73 20 be 67 ac 89 be 16 bc 30 be
       -0.3008026 -0.15669055 -0.26889345 -0.17259249
0000c0 e6 c8 05 3f 3c e2 b6 bc cb b7 79 3e d7 ee 0a bf
       0.5225967 -0.022324674 0.24386518 -0.5427069
0000d0 e4 26 6c bd 90 fb 16 bd c9 0d 8a 3e f8 33 07 bf
       -0.057654276 -0.036861002 0.26963642 -0.52813673
0000e0 7f 8c 08 3f 1e 21 f7 bd f6 5a 98 bd 48 ff e2 be
       0.5333938 -0.120668635 -0.074392244 -0.4433539
0000f0 30 9a 87 3e 2a d3 f1 be a4 9e d2 bd 9a 2c ca be
       0.26484823 -0.47231418 -0.102841645 -0.39487153
000100 07 7f ae 3e 5e 53 6e be 1e de 3d bc e9 1f 57 bf
       0.3408129 -0.2327399 -0.011588601 -0.84033066
000110 09 3a 02 3f ff bd 45 bf f8 3c c1 bd 60 b2 54 bf
       0.50869805 -0.77243036 -0.09435457 -0.8308468
000120 10 b2 b9 3c 17 08 6a 3f 91 55 73 bd 0d 98 52 3e
       0.022667915 0.91418594 -0.059407774 0.20565815
000130 69 14 04 3e 14 9d 17 bf e1 60 c1 bd 64 56 4a 3e
       0.12898411 -0.5922406 -0.09442306 0.19759518
000140 97 e9 39 bd 7b e5 13 3f 0c 0c 18 3c 25 3a e8 be
       -0.045388784 0.57772034 0.009280216 -0.4535686
000150 5e a2 be 3d 86 48 08 3c 1b 55 b7 3d c7 11 cc be
       0.09308313 0.008318072 0.089517795 -0.39857313
000160 6e 35 47 3e 79 16 e2 3e 54 58 9b 3d 02 7c 84 bf
       0.19453976 0.4415777 0.07585207 -1.0350344
000170 3c 02 d3 bd 6f 9e 0d 3f ff 94 3b 3d 2f f6 78 bf
       -0.103031605 0.55319875 0.04579639 -0.97250646
000180 79 3d a7 be 77 bf d0 3f a4 2a 1b be af 47 dc bd
       -0.32664087 1.630843 -0.15152985 -0.1075586
000190 09 b9 08 bf 91 6b ec be e7 bf 0b be e5 26 45 be
       -0.5340734 -0.46175817 -0.13647424 -0.19253118
0001a0 df 25 8b be 44 0e d8 3f a1 d2 68 bc 72 bb 0b 3d
       -0.2717733 1.6879354 -0.014210374 0.03411431
0001b0 c6 fa aa bd d4 03 40 bf 26 06 ec bc d0 f0 94 3d
       -0.083486125 -0.7500584 -0.028811526 0.07272494
0001c0 aa d7 5f be d9 ad e3 3f 93 b8 27 3e 41 38 fc bd
       -0.21859613 1.7787429 0.16379003 -0.12315417
0001d0 eb f5 b0 3e 70 ec 97 bf 11 ed d5 3d 74 79 4c be
       0.3456262 -1.186903 0.104456075 -0.19968206
0001e0 77 03 e6 bd 77 01 19 3f 04 fb 06 3e 17 ba 8a 3e
       -0.112311296 0.5976786 0.13181692 0.270951
0001f0 0d a9 81 3e d6 75 ea be 57 08 bf 3d 85 33 5a 3e
       0.25324288 -0.45793027 0.093277626 0.21308716
000200 5a 67 1d be 8e 60 4e 3f f1 5d bb 3d 34 9a bf 3e
       -0.15371457 0.8061608 0.09148777 0.37422335
000210 00 31 ac 3d 39 27 93 bf c6 c7 f4 3d 14 09 9c 3e
       0.084077835 -1.1496345 0.11952166 0.30475676
000220 80 8a 5b be 04 9d 52 3f 7c 15 fd bd f5 5c 36 3e
       -0.21439552 0.82270837 -0.123576134 0.17808898
000230 a5 e2 d4 bd 2b 34 00 c0 3f c9 60 bc a6 78 5a 3d
       -0.103947915 -2.003184 -0.013719856 0.053337716
000240 d6 7c 11 3f 52 1c 9a bf af 84 41 be e7 10 7a 3e
       0.5683111 -1.2039893 -0.18898271 0.2442051
000250 6c de 41 3e e7 2d aa be f6 05 86 be 3d 77 85 3e
       0.18932503 -0.33238146 -0.26176423 0.26067534
000260 d4 8f be 3e bf 21 6b bf ce b3 42 3d fc 2d 3d 3f
       0.37219107 -0.9184837 0.047534756 0.7389829
000270 40 48 e5 bd 3c 26 5b bd 36 5e af 3d 60 8a 48 3f
       -0.11195421 -0.05350326 0.08562891 0.78336143
000280 94 11 b5 3e bc f2 1f bf c6 d0 41 bd 27 cd 3f 3f
       0.35364974 -0.6247976 -0.047318242 0.7492241
000290 e9 ce 1b 3e df ab 36 3e b1 5a 73 3c be fc 3d 3f
       0.15215649 0.17839001 0.0148531655 0.7421378
0002a0 26 1a 13 3e 9f d9 2c bf fa 2c 53 bd 14 e4 3e 3d
       0.14365444 -0.67519563 -0.051556565 0.04660423
0002b0 f2 ce bc 3e 01 3f f2 3d d4 94 84 bd 2e 54 6e 3d
       0.36876637 0.11828423 -0.06473699 0.05818575
0002c0 c0 95 96 3e 69 58 1d bf 53 c1 ff bc 50 fb 4f 3c
       0.29411125 -0.6146303 -0.031220114 0.012694195
0002d0 5e ca e9 be 96 9f a8 3e 31 5f a9 3c 42 fa b3 bd
       -0.45662206 0.32934254 0.020675274 -0.08787967
0002e0 49 4d 96 3d b7 02 81 bf c5 44 93 3a 6b 23 58 bd
       0.0733896 -1.0078954 0.0011235705 -0.052768152
0002f0 28 61 9b bf 39 03 3f 3f c0 b7 c6 3c 07 7d df bd
       -1.2139025 0.7461429 0.02425754 -0.10912519
000300 80 5e 10 be 27 9d c3 3e 6f b4 f2 3c c8 3c 0b bf
       -0.14098549 0.38205835 0.029627053 -0.5438962
000310 f5 83 10 3f ec 79 03 bf ed f5 9f bc 7c 67 16 bf
       0.5645135 -0.51357913 -0.019526446 -0.58751655
000320 fc ea 4b bd c9 a8 bd 3d 06 cd 03 be b4 17 52 be
       -0.049784645 0.09260709 -0.12871179 -0.20516855
000330 96 8b 7c be 58 7e df be a3 3e c3 bd dd cd 3d be
       -0.24662623 -0.4365108 -0.095334314 -0.18535562
000340 87 31 24 bd 24 2b d5 3e db e8 af 3d 03 93 56 3f
       -0.040086295 0.41634476 0.085893355 0.8381807
000350 7e 89 35 bf 4a f7 1d bf 6e 7f 24 3e 9d 6d 48 3f
       -0.7091292 -0.6170546 0.16064236 0.78292257
000360 06 c4 fe 3d 4c 73 8e be 54 aa 1b 3e 75 77 e6 ba
       0.12439732 -0.2782234 0.15201694 -0.0017583208
000370 57 0f 81 3e 4f bb 7e 3e 1f fa e9 3d 99 ce 38 3d
       0.25207016 0.2487614 0.1142466 0.045118902
000380 5f f6 ca 3e 9b 3b 29 be 88 56 fb bd be 42 bf bd
       0.3964109 -0.16526644 -0.12272364 -0.09338902
000390 ed 09 bf be 95 8d a4 3e 98 dc 96 bd ff 13 a9 bd
       -0.3731226 0.3213927 -0.07366294 -0.08255767
0003a0 8c c8 b6 3e 3f 2f a6 be 27 f3 9f be 0c 17 9f bc
       0.3569988 -0.3245792 -0.31240198 -0.01942017
0003b0 6b 54 7a bf 57 42 39 3f 6f 1a 9f be 8e 43 3d 3d
       -0.9778506 0.7236685 -0.31074855 0.046207003
0003c0 34 ee b3 3e a2 8e 54 bf be 52 31 be 53 30 c8 3e
       0.35142672 -0.8303014 -0.1731672 0.39099368
0003d0 c7 21 70 3f 3d e2 c2 be c8 8a 41 be fb 4a ad 3e
       0.9380154 -0.3806323 -0.18900597 0.33846268
0003e0 73 bf ac 3e 3e 9a 59 bf e9 1f 00 3e 8c dc ec 3e
       0.33739814 -0.8500098 0.12512173 0.46262014
0003f0 ef 23 5b 3f b8 60 fe 3e 82 6b 06 3d f3 a6 e8 3e
       0.85601705 0.49683166 0.03281737 0.45439872

fc_input.bias f4 [200]
000000 c8 17 40 bf 3f 3e 52 39 69 bd ab be c7 08 ca be
       -0.7503629 0.00020050349 -0.33542946 -0.39459822
000010 61 f9 e9 3c b8 9e d2 3e 79 8d 8e be 46 3f 52 be
       0.028561296 0.41136718 -0.2784231 -0.2053195
000020 6a 31 06 bf f5 d4 f3 be dd 05 08 bf df 6a 1f bf
       -0.5241915 -0.4762341 -0.53133947 -0.6227245
000030 92 97 0b bf b7 77 0c 3e 1b bd 0d bf e4 0c 21 bf
       -0.5452815 0.13717543 -0.5536668 -0.62910295
000040 73 b4 d0 be 8f 02 51 bc b4 bb 23 be 71 70 a9 bd
       -0.40762672 -0.012756958 -0.15989572 -0.082733996
000050 21 b5 42 be fb 37 3f bf 42 67 55 3d 9c 11 a0 be
       -0.19014408 -0.74694794 0.052100427 -0.31263435
000060 f3 0a 9f be 42 1a 0a bc 2d 5b 74 be 3a 6d 06 bf
       -0.3106304 -0.008429112 -0.23862906 -0.52510417
000070 a1 57 9f be b4 4d 55 bd ba 08 97 be 4f 6c 88 3e
       -0.31121543 -0.052076057 -0.29498845 0.26645133
000080 29 1f c5 be 2e b8 89 3b 89 61 77 be ce f9 72 be
       -0.38500336 0.004202864 -0.241583 -0.23728105
000090 c5 c4 83 be 9d d4 14 be 8c 30 17 bf 0e cc ba 3b
       -0.2573606 -0.1453423 -0.5905845 0.0057005947
0000a0 9f bd 29 bf 58 6e ee bd 76 6b cc be fe e2 21 be
       -0.66304964 -0.1164214 -0.39925736 -0.15809247
0000b0 dd b1 02 bf 93 f5 7e bf f9 ac e1 be 7c fc 5f be
       -0.5105265 -0.99593467 -0.4407728 -0.21873659
0000c0 4c d6 1e 3f 34 a5 44 3e 7d 3f f1 bd 17 86 34 bf
       0.6204574 0.19203645 -0.117796876 -0.70517105
0000d0 3a 9c 32 be 08 a4 39 3e d5 cd 75 be 18 6a 09 be
       -0.17442408 0.18128979 -0.240043 -0.13419378
0000e0 8d c3 a0 be 76 b0 cc bd 71 87 b3 be 4d fc 7d 3c
       -0.31399193 -0.09994595 -0.3506427 0.015502048
0000f0 31 93 dc be 92 dd ba be 62 d6 f4 be b8 be 9b be
       -0.43081048 -0.3649717 -0.4781981 -0.30418944
000100 1d e7 9e be 2a d1 90 be 61 ef ad be f2 00 fe be
       -0.310357 -0.2828458 -0.33971694 -0.49610096
000110 7d 85 14 bf 67 4c 0d 3e 33 53 49 3d da 0a 36 be
       -0.58016187 0.13798676 0.04915161 -0.17777577
000120 5c b6 87 3d 41 33 5d bc 8f a9 c2 bc f8 cd be be
       0.06626579 -0.013500989 -0.023762492 -0.37266517
000130 34 11 86 be 22 01 ad be 98 0b c0 be 6b e8 6e 3e
       -0.26185 -0.33789927 -0.37508845 0.23330848
000140 13 9f 10 be 6f 93 b9 be ce 3a 83 be 9b c9 ce 3e
       -0.14123182 -0.36245295 -0.25630802 0.40388188
000150 0c ce 2d bf 00 1a 06 bf 90 1d a9 be f9 ef f8 be
       -0.6789253 -0.5238342 -0.33030367 -0.48620585
000160 5e 8d eb be e0 95 d2 be 1b 6c 46 3c 26 6e 10 3e
       -0.46006292 -0.4112997 0.012110735 0.14104518
000170 41 0a 36 bf de 06 de bd f5 6c ea be f4 ec e4 be
       -0.71109396 -0.108411536 -0.45786253 -0.4471203
000180 5f 7b 8e bf 7d e8 9b be 02 49 8e be bb c3 11 bf
       -1.11314 -0.30450812 -0.27790076 -0.56939286
000190 2e be a4 be a9 0b 53 be 9a d4 ca be b2 14 c3 be
       -0.32176346 -0.20609917 -0.39615327 -0.38101727
0001a0 f5 6f fb be c8 4e 1b 3d 69 cd 8d be fe 36 22 be
       -0.49108854 0.03791693 -0.27695778 -0.1584129
0001b0 18 ec 8e be 35 ca 0e bf cc 0c da bd 72 04 83 be
       -0.279145 -0.55777293 -0.10646972 -0.2558933
0001c0 72 73 1b bf 98 ad 90 bc f4 3b 98 be 1c d6 64 3e
       -0.6072303 -0.017660901 -0.2973324 0.22347301
0001d0 d7 b0 c1 be d9 c1 87 be ba e5 f3 be 2b 6d 7b be
       -0.3783023 -0.26515082 -0.47636205 -0.24553363
0001e0 9f a1 39 be 8f 0a 9c 3c 25 c0 74 3d 60 c7 45 bd
       -0.1812806 0.019048003 0.059753556 -0.048285842
0001f0 e8 16 00 bf 01 f4 86 be e8 fd 5f be 04 f4 1a 3e
       -0.5003495 -0.26358035 -0.21874201 0.15132147
000200 d6 96 f1 bd 66 47 9f 3e a9 fd da be e6 02 12 be
       -0.11796348 0.3110916 -0.42771652 -0.14258918
000210 28 6b c8 be 91 fc 0d be a3 4a 84 be 25 55 8d bd
       -0.39144254 -0.13865878 -0.25838193 -0.06901006
000220 02 e4 43 be ff 25 b6 be f5 50 31 be 20 19 0c bf
       -0.19129947 -0.35575864 -0.17316039 -0.5472584
000230 43 ab e6 be ef a3 b0 be a4 d8 12 bf 03 f0 25 bf
       -0.45052537 -0.3450007 -0.5736182 -0.64819354
000240 0b a9 d6 be 12 57 5b be 18 65 1e bf e4 18 c3 be
       -0.41925845 -0.21419933 -0.61873007 -0.38104928
000250 09 00 8b be e5 70 59 be 01 19 72 3e 7f 73 8e be
       -0.27148464 -0.21234472 0.2364235 -0.27822492
000260 3b 29 31 bf e5 cf cf be 92 65 99 bd e6 1d cb bd
       -0.6920354 -0.40588298 -0.07490076 -0.09917812
000270 36 87 cb bd 94 9c 5f be 1f 2d d8 be 7b 74 3a bf
       -0.09937899 -0.21837074 -0.42221925 -0.72833985
000280 ea ed 6f be 6e 08 01 bf ff 20 0b bf 95 ca 87 be
       -0.23430601 -0.5040349 -0.54347223 -0.26521745
000290 ab 6b b2 be 80 98 18 bf f7 39 a9 bc a0 02 0d 3e
       -0.3484777 -0.59607697 -0.020657523 0.13770533
0002a0 fe 36 2c bf 00 f8 e5 be 72 4a c4 3d 25 07 f6 be
       -0.6727141 -0.4491577 0.09584512 -0.48052326
0002b0 06 89 1b 3e 64 29 3c bf db b2 c4 be bd 22 6f be
       0.15188989 -0.7350066 -0.38417706 -0.23353095
0002c0 97 dd ea be 6e bd 83 be 99 bc 48 bf 67 d7 b8 be
       -0.45872185 -0.2573046 -0.7841278 -0.3610184
0002d0 bb 3e e3 bd fb 89 ee bd 43 f4 41 bf b0 32 4c 3e
       -0.11095949 -0.116474114 -0.7576334 0.19941211
0002e0 54 84 df be a8 06 0a bf ae eb a7 be ad c5 0b bf
       -0.43655646 -0.53916407 -0.32796997 -0.54598504
0002f0 bd 07 88 be 2c ac 49 be 73 d8 20 bf 75 b3 1e be
       -0.26568404 -0.19694585 -0.62830275 -0.15498145
000300 ac 50 05 bf 20 c1 94 be 19 5c b4 ba 7e 61 81 be
       -0.5207622 -0.29053593 -0.0013760357 -0.25269693
000310 48 79 6a bc ab fd e7 ba 55 2e e7 bd 05 33 09 3e
       -0.014311142 -0.00176995 -0.11288134 0.13398369

hidden.weight f4 [150, 200]
000000 69 85 3b 3d 58 53 cc bb c3 5f 95 bd dd d6 2a be
       0.045781527 -0.0062355213 -0.07293656 -0.16683526
000010 ac 75 0d 3c c0 d9 5e be 2c a5 9e 39 b1 a4 45 bd
       0.008634012 -0.21762753 0.0003025917 -0.048252765
000020 13 8f 45 bd fa 28 b2 bd 74 7a 83 bd 8b 2a 83 3c
       -0.04823215 -0.08699222 -0.064198405 0.016011497
000030 5c 16 1b be 70 bc c4 bd ab 6b 0e be 2c e4 81 bd
       -0.15145248 -0.09606254 -0.1390826 -0.063423485
000040 87 c9 79 3d 43 bb dc bd 3f 6f 60 3d e4 49 5c bd
       0.060983207 -0.10777905 0.054793593 -0.053781405
000050 98 0f 1d be a6 07 e3 bd a5 21 96 bd 0a 44 3a bb
       -0.1533798 -0.11085443 -0.07330636 -0.0028421902
000060 14 7b 44 3c 55 52 b7 bd 63 c5 29 3c fb 3e 16 3d
       0.011992235 -0.089512505 0.010362002 0.036681157
000070 d5 50 5f bd 72 e0 aa bc b6 c8 8b 3d f7 b5 f2 bd
       -0.054520447 -0.020858977 0.06825392 -0.11851113
000080 dd 0d ac 3a bb c3 f3 3d 2d 25 b5 3c 33 9c 05 be
       0.001312669 0.11902567 0.022112453 -0.13047867
000090 2d bd 41 3d 49 21 39 bd db 01 d2 bd 15 67 3c bc
       0.047299553 -0.04519776 -0.1025426 -0.011499186
0000a0 5b 07 d5 3c 70 27 bd bd 41 1d fc bc d1 42 24 be
       0.026004484 -0.09236038 -0.030775668 -0.16041113
0000b0 e2 a5 20 3d cd ed 11 be 60 60 91 3d 2a ae 76 bd
       0.0392207 -0.1425087 0.0709846 -0.06022469
0000c0 8a 3c fb bd 2a 51 97 bb bf 4e b4 bb cc fd e9 bd
       -0.12267406 -0.00461783 -0.0055025513 -0.11425361
0000d0 4f 8c 04 3d dc 3a 10 be c9 b8 36 be 55 4c 9b bd
       0.03236037 -0.14084953 -0.17843927 -0.075829186
0000e0 f8 4a 8c 3c bf e0 4b bd 09 de 3c 3d 8b 01 0b bd
       0.017125592 -0.04977488 0.046110187 -0.03393702
0000f0 e7 c7 1e be de 22 e9 bd d6 ec 1a be e5 9e 9d 3d
       -0.15505944 -0.113836035 -0.15129408 0.07696322
000100 fc 15 20 be 97 e5 dd bc a4 66 ad bd 31 6b a8 bd
       -0.15633386 -0.027087016 -0.08466843 -0.0822357
000110 75 c6 02 be 0a 64 48 bd 8e fc 9e 3c 89 ca fa bd
       -0.12771018 -0.04892353 0.019407537 -0.12245662
000120 46 e9 2f be 14 fc 19 bd ef c5 d4 bd 7c 1e a7 bd
       -0.1717883 -0.037593916 -0.10389315 -0.08160111
000130 b9 4f 60 3d f4 75 dc 3c 81 1e 05 be b9 18 35 3c
       0.05476353 0.026911713 -0.12999918 0.011053258
000140 a1 ac 04 be 25 8c 47 3d 41 e0 03 3b 7c 49 6d 3b
       -0.12956478 0.048717637 0.002012268 0.003620713
000150 ee c1 e0 3b 67 e2 ba bd a6 58 39 bd f9 69 76 bd
       0.0068590557 -0.09125214 -0.045250557 -0.060159657
000160 f1 37 bc bd 43 55 8d bd 84 e9 26 be 3f 01 e6 bc
       -0.091903575 -0.06901028 -0.16300017 -0.028076766
000170 2d a4 9f bd 3e cc 98 bd e4 1d 53 bc ee d5 5a 3d
       -0.07794986 -0.07460831 -0.012885544 0.053426675
000180 5b 9e 7a bb 26 70 e9 bc 01 70 e6 3b c8 b2 d2 3c
       -0.003824136 -0.02849586 0.007032395 0.025720015
000190 d2 82 ab bd a3 62 ed 3c 43 81 01 be 58 5e 28 bd
       -0.08374561 0.028977698 -0.12646966 -0.0411056
0001a0 87 18 fd bc 51 71 5c 3d 9f 58 6e 3d 96 1c 49 be
       -0.030895485 0.053819004 0.058189984 -0.19639811
0001b0 e8 0f 1b bd ab e9 f5 bd 12 0d 5a bd 5c 9d f3 3c
       -0.037856966 -0.12007459 -0.05323512 0.02973812
0001c0 f5 8a 99 3d 1b 7c c0 3d 93 26 d9 bc f5 28 42 be
       0.07497207 0.09398671 -0.026507651 -0.18960936
0001d0 12 ad 11 bd d7 7a 45 3d 18 bd e6 3b 36 24 8f bd
       -0.035565443 0.048212852 0.0070415847 -0.069893286
0001e0 27 17 c1 bd d5 b2 aa bd 56 58 83 bd 80 ef bb 3d
       -0.09428244 -0.08334891 -0.06413333 0.091765404
0001f0 b2 4c 54 3d 15 70 cc bd 0c d9 4e be b5 0e 3f be
       0.051830955 -0.099823155 -0.20199984 -0.18657954
000200 97 4a f5 3c 17 ca 0b 3c c7 08 5c be 09 a4 f5 bd
       0.029942794 0.008532069 -0.21487723 -0.11994178
000210 55 0d 30 bd f9 d2 2c bd 87 96 e2 bb 2a e4 9e 3d
       -0.042981464 -0.042193387 -0.006914917 0.077583626
000220 ac d6 1a be 4f 6c 69 bd 63 0d 6d 3d 65 5c 77 bd
       -0.15120953 -0.056988057 0.057874095 -0.06039085
000230 81 0e 3e bd 27 b4 00 be 59 0a f2 bc 8c 28 9c bc
       -0.04640055 -0.12568723 -0.02954595 -0.019062303
000240 1c 82 31 bd 86 62 ca 3b df 71 cf 3b 89 1d ec bc
       -0.043336973 0.0061762957 0.006330713 -0.028822677
000250 43 34 6a bd 71 15 96 3c 13 b5 14 3c 9b b2 c5 3c
       -0.057178747 0.018320771 0.009076375 0.024133017
000260 9f b8 cd bd d7 3d d1 3c 13 e2 30 3d 4b 30 cc 3c
       -0.10044979 0.025542183 0.04318435 0.024925372
000270 fc fc 0c 3e ab fe 1b 3d 1c b5 8a bd 2d 55 03 be
       0.13768381 0.038084667 -0.06772825 -0.1282546
000280 8f 5f 2a 3e 99 22 47 bd 46 47 75 bd 04 ea dc 3c
       0.16638015 -0.04861698 -0.059882425 0.026967056
000290 4d d6 9a bd 6d d5 8d bd b3 0f 11 3e d6 07 b5 ba
       -0.07560406 -0.06925473 0.14166145 -0.0013811539
0002a0 ca c7 2c be 9f d3 71 bd d0 ab b8 3c 94 d0 85 bd
       -0.16873088 -0.05903971 0.022542864 -0.06533924
0002b0 1b bf 6b be cc 48 12 bd e5 39 b9 3c 43 0c e4 bd
       -0.2302212 -0.035713956 0.022610614 -0.11135151
0002c0 97 60 2b 3d 77 75 44 bd b8 6a b1 bd 9b 03 34 bd
       0.041840162 -0.047963586 -0.08662933 -0.04394875
0002d0 fc 79 33 3d a1 4d 6e bd 94 da b7 bd 2c 04 20 be
       0.043817505 -0.0581795 -0.08977237 -0.15626591
0002e0 84 3b 0e be aa 18 33 be 46 9d 13 3d c9 d5 67 3d
       -0.13889891 -0.17489877 0.03603866 0.056600366
0002f0 30 1f 10 be 26 1f 23 be 8e 8b d0 bc 0e 2e b6 bd
       -0.14074397 -0.15929851 -0.02545717 -0.08895503
000300 22 5b 48 bd d5 b9 c2 bc ba bb f6 ba 63 dc 0a bd
       -0.048915036 -0.023770252 -0.0018824257 -0.033901583
000310 fd b6 a1 3c 0e 0d 6e be 6a e5 84 be bc 5e 2d 3e
       0.019740576 -0.23247167 -0.2595628 0.1693067
000320 53 44 a4 3e 9e 2c 33 be 7b f6 1d 3e c9 4e 8f be
       0.32083377 -0.17497489 0.15426056 -0.27989796
000330 47 12 fe 3d b1 18 78 3d da 5d 23 3e 6b 5b a7 bd
       0.1240583 0.060570423 0.1595377 -0.081717335
000340 8a 23 9e be 52 8a 0f bf ec 67 c6 be 17 12 d4 3e
       -0.3088649 -0.56070435 -0.3875116 0.4142005
000350 30 7d c4 3a b1 a1 e2 bd fd be 2b be c8 5a 02 be
       0.0014990922 -0.110659964 -0.16772075 -0.12729943
000360 d1 b6 98 be 05 8c 14 bf a2 e0 c5 3d 28 bc ea bd
       -0.29826978 -0.5802615 0.09661986 -0.11461669
000370 b5 a3 84 3e c0 d9 01 3d 84 18 9f be ab e8 b6 bd
       0.2590615 0.031701803 -0.3107339 -0.08931097
000380 27 57 2f be 66 a2 f3 3d 2e 82 8e b9 79 39 b4 be
       -0.1712309 0.118962094 -0.00027181342 -0.35200098
000390 71 a7 f3 bd 0a 30 84 be a1 ab 02 bd a1 b0 55 be
       -0.11897171 -0.258179 -0.03190196 -0.2086816
0003a0 0f 00 87 bd 0d 42 31 bf 45 e1 00 be 4c f2 9a bd
       -0.06591808 -0.6924141 -0.12585934 -0.07565746
0003b0 f6 a8 d5 3c 9f a0 92 3e 2b e5 ec be 5e 60 b9 3c
       0.026081543 0.2863817 -0.4626859 0.02262896
0003c0 32 00 e0 3d 2e 70 8c 3e 7b ec d0 3d e6 bc a0 be
       0.10937537 0.27429336 0.10201355 -0.31394118
0003d0 06 cc 0b be bc a6 f0 bd 0e 3d a3 bd 41 9d a9 be
       -0.13652048 -0.11750552 -0.0797063 -0.33127788
0003e0 59 b5 1c bd f4 da 09 3e 45 38 bf 3d 75 e0 91 be
       -0.038258884 0.1346243 0.093369044 -0.2849156
0003f0 41 54 a8 bd f4 1e 83 be 1a 72 98 be 22 49 ee 3d
       -0.08219195 -0.25609553 -0.29774553 0.11635043

hidden.bias f4 [150]
000000 0d fd e7 bd 2b 93 a4 be 0d 60 c8 bd 44 59 e0 be
       -0.113275625 -0.3214353 -0.09783945 -0.43818104
000010 10 25 e6 3d 53 a9 37 3d 4f 99 84 be 9f 65 b0 3e
       0.11237538 0.044839215 -0.25898215 0.3445253
000020 7d 16 98 be 5f ec 8d be b1 30 1d bf 90 1b a4 bd
       -0.29704657 -0.277194 -0.6140242 -0.0801307
000030 c4 dc a6 3e 61 b5 85 3e d4 5e 6c be fb 93 86 3e
       0.32590306 0.26114944 -0.23083049 0.26284775
000040 10 e1 af 3c ab be 2e bd 67 f5 c0 bc 2e 85 20 bc
       0.021469623 -0.042662304 -0.023554517 -0.0097973775
000050 45 0c ef bd 4f 12 34 3e 25 f9 b8 bd 52 19 04 bd
       -0.11672262 0.17585109 -0.090318955 -0.03225071
000060 ed c4 4e bd d5 00 c0 3c 39 ea 4b be 46 37 f3 be
       -0.05048077 0.023437897 -0.19913568 -0.47503108
000070 0e 6d 68 be b3 d3 2f 3e bb 5b 1a 3e 30 c3 06 3e
       -0.22697851 0.171706 0.15074055 0.13160396
000080 b1 1a 07 bc 96 29 eb be 4e a7 df bd 08 fb e9 bd
       -0.00824611 -0.45930165 -0.10920583 -0.114248335
000090 2a 3f 54 be 8f 1e e8 be a6 8e 1b be c9 40 8e bb
       -0.2072722 -0.45335814 -0.15191135 -0.004341219
0000a0 2e 91 bf be 8e 64 b2 be 88 4d 9e 3e be 4f 78 bd
       -0.3741545 -0.34842342 0.30918527 -0.060622923
0000b0 83 93 89 bd 56 6b da bd 0b cf 56 bb 83 25 1b bf
       -0.06717589 -0.10665004 -0.0032777216 -0.60604113
0000c0 a1 9e 9d be 2e dd 52 3e 68 d9 8b be 94 56 cf 3c
       -0.30785087 0.20592186 -0.27314305 0.025309838
0000d0 ee fe 07 3d f5 5b 97 bd bf 0f 83 3e b3 0e e7 be
       0.033202104 -0.07390586 0.2559795 -0.45128402
0000e0 9e 27 d1 3d 7f cf 99 be cb 7e 1d bd e8 3d 1d bd
       0.102126345 -0.3004112 -0.038450997 -0.038389117
0000f0 a5 ac bb be f9 a5 20 bd 96 3a 38 be 85 c6 93 3e
       -0.36655155 -0.039220784 -0.17991099 0.28862396
000100 5e bf a5 3d bf 6d ed be e4 38 a7 bd 59 49 a6 bd
       0.08093141 -0.46372792 -0.08165148 -0.08119459
000110 9f f9 5d be d9 42 0f 3e 87 77 27 3e 21 96 11 be
       -0.21677254 0.13990344 0.1635419 -0.14217426
000120 5e 96 6a be dd ec 7c 3d 3e bc b0 3c 5e fd 58 bb
       -0.22908923 0.061749328 0.021574136 -0.0033110003
000130 39 55 c4 3e a1 79 85 bc 09 97 96 be 63 cb 0a be
       0.3834627 -0.016293349 -0.29412106 -0.13554148
000140 8b 71 83 3e 4b 21 e2 3e b9 9d 8d be 7f d1 b6 bd
       0.25672564 0.44166026 -0.27659395 -0.08926677
000150 d7 19 13 bf c1 47 b6 3e 83 88 3a be ff c0 0e 3d
       -0.57461303 0.3560162 -0.18216138 0.034852024
000160 49 da d0 3e 62 3e 11 bf a2 e7 73 be 41 c6 e2 bc
       0.40791538 -0.56735814 -0.2381883 -0.027682425
000170 58 b6 6a 3e 84 b2 97 be bc 8e aa 3d 6e 13 26 bf
       0.22921121 -0.29628384 0.08328006 -0.648734
000180 11 74 a1 be 0a 70 cf bd eb 8b 0a bd 0a f4 5f be
       -0.31533864 -0.10128792 -0.033824842 -0.21870437
000190 50 c3 c6 bd 14 c1 66 be a4 d4 a4 be 3c 33 93 bd
       -0.09705222 -0.22534591 -0.32193482 -0.071875066
0001a0 cf ba ac bd 11 be 15 be 36 5e d3 bc fd 1c 5c bd
       -0.084340684 -0.14623286 -0.02580176 -0.053738583
0001b0 47 e1 f4 3d 69 32 9d bd ff f2 e0 be 3b 3c 54 be
       0.11957031 -0.076756306 -0.4393539 -0.20726101
0001c0 9f b2 8b 3b df 1f fd bc 9e cf 68 bc 5d 54 bf bc
       0.0042632367 -0.030898986 -0.014209656 -0.023355657
0001d0 f1 a2 1d be 8b 1b 11 be 56 b9 84 3e 10 0e e0 bd
       -0.15394188 -0.14170663 0.2592265 -0.10940182
0001e0 85 0f 6e bd 84 aa b4 be d7 a7 34 be 7e 2e 1d be
       -0.05812027 -0.35286343 -0.17642151 -0.15349767
0001f0 63 df 66 bd 39 e3 9c 3e 46 a5 92 be ad 4b 02 bf
       -0.056365382 0.30642107 -0.2864172 -0.5089672
000200 33 bc a2 be b0 3e e5 be ca 41 cd be 6c 2b 3a 3e
       -0.3178421 -0.4477439 -0.40089256 0.18180627
000210 a9 4e bd be 2b 02 12 bf f0 05 07 bd 6d 50 8d be
       -0.36974075 -0.5703456 -0.032964647 -0.27600423
000220 11 6d 6e bd 0d 91 e7 be f5 ed 1d 3e 2b a9 23 be
       -0.058209483 -0.45227852 0.15422805 -0.15982501
000230 0d e4 69 bd 32 7d b3 be 6b 1e f0 be ee f0 40 bd
       -0.05710225 -0.35056454 -0.46898207 -0.04710477
000240 61 9f 67 be 87 9c 80 3e 1a f4 80 be 0f 5c e8 be
       -0.22619392 0.2511942 -0.25186235 -0.45382735
000250 38 56 5a bc 17 2a b6 3c
       -0.01332622 0.022236867

fc_output.weight f4 [2, 150]
000000 25 61 62 3c 66 3a 39 3e 5a 5d 6e be ae 85 d5 3e
       0.013817106 0.18088683 -0.23277798 0.41703552
000010 8f 1c f1 be b0 39 60 be a2 7e fc 3d 9f b5 e7 bd
       -0.470921 -0.21897006 0.12328841 -0.11313938
000020 f3 56 78 be 97 78 1d 3e 3a c5 ca 3e 1c 1e 58 3f
       -0.24251918 0.15378033 0.39603597 0.84420943
000030 65 86 43 3e 1f f7 9a 3e f2 d9 d2 bc 7d c3 d3 be
       0.19094236 0.30266663 -0.02573869 -0.41360083
000040 4c eb 0e 3f d1 ae d2 bc c9 d9 b8 bb 8b 06 0e 3f
       0.55827785 -0.025718125 -0.0056411964 0.55478734
000050 ec 3a 13 be 8b a9 af be 2f 2e cf 3b 4f af 10 3e
       -0.14377946 -0.3430904 0.006322644 0.14129375
000060 e2 4e 94 3c 3d 3a b8 3e 22 9f de be cd 58 ce 3e
       0.01810402 0.35981932 -0.43480784 0.40302125
000070 24 0e 5c 3d 13 89 87 bd 7a a4 c5 be a3 fc 4a bf
       0.053724423 -0.06617942 -0.38602048 -0.79291743
000080 c0 1a 0f 3f 1d 43 03 bf b7 63 aa be 59 06 31 bf
       0.5590019 -0.5127428 -0.332792 -0.6915031
000090 4c d5 1d bf 48 1d 46 bf 7e 33 e5 bd b6 63 3f bf
       -0.6165359 -0.7738843 -0.11191462 -0.7476152
0000a0 bb 12 4b bf d3 b3 84 3d 86 63 0c 3f 84 e4 17 3c
       -0.79325455 0.06479611 0.5483936 0.009270791
0000b0 99 a8 00 3f 02 d4 77 be 9c 04 1c bf 7b 4a 9d 3d
       0.5025726 -0.24201968 -0.60944533 0.07680222
0000c0 f9 c4 40 bf ba db 8a be 4e 7c 9f 3c 52 1d bd 3e
       -0.75300556 -0.27120763 0.019468453 0.36936432
0000d0 04 eb ac 3e 97 c3 8c 3e c6 af 43 be 9b f3 c8 be
       0.33773053 0.27492973 -0.19110021 -0.39248356
0000e0 ff 04 a8 be 50 fe 47 be ca 16 c8 bd 60 a9 53 bf
       -0.32816312 -0.19530606 -0.09769972 -0.8268032
0000f0 65 83 c0 be dc 75 96 3d 00 42 1d bf b2 b2 ec 3e
       -0.37600246 0.07346699 -0.61428833 0.46230084
000100 62 bf ba be a7 d3 eb be c3 82 aa be 7d 82 01 bd
       -0.36474138 -0.46059915 -0.33302888 -0.031618584
000110 65 d2 40 bf 2d 8a cd be b4 e2 88 be eb 57 5e be
       -0.75321037 -0.40144482 -0.2673546 -0.21713226
000120 72 c0 61 bf 9b 83 e1 3e b5 be 50 3e 04 12 d8 3c
       -0.88184273 0.4404572 0.20385249 0.026375778
000130 59 5e f4 3e cd ff 0b bc d5 a0 43 3f 86 1a a9 bd
       0.47728232 -0.008544874 0.76417285 -0.08257012
000140 c0 11 2a 3f 38 2d e2 be 29 8b b6 3e 84 80 20 bb
       0.66433334 -0.44175124 0.35653046 -0.0024490664
000150 10 63 89 3e 8a 52 49 bf 39 48 99 bc e3 15 c8 be
       0.2683339 -0.7864157 -0.018711196 -0.39079198
000160 64 fa d9 3e df 75 07 bf 78 a7 a2 3e d8 be 9d bc
       0.42573845 -0.5291423 0.31768394 -0.01925604
000170 cc 73 e0 bd eb f1 93 3e 80 6d 64 be 77 05 b3 be
       -0.109595865 0.28895506 -0.22307396 -0.34965107
000180 88 6a bb 3d 84 98 24 3d 55 c8 68 3f 11 50 e6 be
       0.091511786 0.040184513 0.9093068 -0.4498296
000190 74 48 ca be a5 71 68 bd e8 4d eb be e5 0b 1c be
       -0.39508402 -0.056749005 -0.45957875 -0.15238912
0001a0 33 6d 06 bd 2f 90 d5 3d 5a a9 13 be 50 dd 24 bc
       -0.032818984 0.104278915 -0.14420071 -0.010062531
0001b0 93 be 98 be 3e e1 80 bf 04 51 0b 3e 48 6a 12 3f
       -0.29832897 -1.0068738 0.13605124 0.5719342
0001c0 4d ed d9 3e fb 05 98 3f d1 74 6a 3c f3 d5 c9 3d
       0.4256386 1.1876825 0.014310078 0.09855261
0001d0 e8 da 66 be 57 90 05 3f 17 81 0e bb b2 d6 53 bf
       -0.22544444 0.5217337 -0.0021744424 -0.82749474
0001e0 d7 49 23 3c 31 86 c0 bc 06 e4 ad be 7c 8e 0d 3f
       0.009966335 -0.023501487 -0.3396303 0.5529554
0001f0 dc 6e db 3c 01 60 06 bf da ab b1 3e e4 8d 06 3f
       0.02678626 -0.5249024 0.34701425 0.5256026
000200 eb 59 5f bf 89 ae 61 3f fc f0 64 3e fa 40 2d bd
       -0.8724658 0.88156945 0.22357553 -0.042298295
000210 1f 2d 79 3e 63 73 2b be b6 8b c1 bc 24 c9 28 3f
       0.24333619 -0.16743235 -0.02362619 0.65931916
000220 ad 30 e7 be 4c 89 44 3f 84 d7 d5 be 0f a2 a4 be
       -0.45154324 0.76772 -0.41765988 -0.3215489
000230 78 8c 91 3c fa 7b 41 bf 7c 17 0c 3e 09 ff 5b 3c
       0.017767176 -0.755798 0.13680834 0.013427504
000240 99 d9 3a be f6 7c 38 be f5 14 82 3c a5 48 b1 be
       -0.1824707 -0.18016419 0.015879134 -0.34625736
000250 df 66 33 3c 21 76 1b bd 8f c8 9e 3d c5 41 eb bc
       0.010949819 -0.037954453 0.07753097 -0.028717885
000260 64 eb 9f 3d 53 82 77 bf 35 df 6e bf f4 bf 2a bf
       0.07808569 -0.96683234 -0.93309337 -0.6669915
000270 9f c2 33 be 66 17 a4 3f 91 0c 21 3f 35 1d 1e bd
       -0.17554711 1.2819641 0.629098 -0.038602073
000280 72 9a 39 bd aa db 97 be cc a9 ea be 86 b6 d8 be
       -0.045313306 -0.29659778 -0.4583267 -0.42326754
000290 4d be 9b 3e 78 d3 8d 3f 5e 88 e4 3e 24 12 56 bd
       0.30418625 1.108016 0.4463529 -0.052263394
0002a0 ba 5b 30 3d 79 bb b4 be 93 a2 5f bd 55 aa 8d be
       0.043056227 -0.3529928 -0.054598402 -0.27669016
0002b0 ff af 67 bd 1f 9f c4 3e 62 51 41 3d e2 45 6a bf
       -0.056564327 0.3840265 0.047196753 -0.9151288
0002c0 4e c9 d3 bd 38 3a cb 3e d6 d0 8f be 67 b3 fc be
       -0.1034113 0.39692855 -0.28089017 -0.49355623
0002d0 ff 32 db 3d 76 8a 43 be c6 c2 57 3f 6d 01 97 ba
       0.10703086 -0.19095787 0.84281576 -0.0011520811
0002e0 aa 0a b9 3d 5c f6 8d 3e 27 f0 38 3f 75 ec ba 3e
       0.09035237 0.2772702 0.72241443 0.36508527
0002f0 cc bd c8 be aa fa 2b 3d 70 4d 0d be 6c ad 92 3e
       -0.39207304 0.0419871 -0.13799071 0.28647935
000300 b0 32 00 bf 9a ba 68 3d a1 ad bd bd 4c a3 f4 3a
       -0.50077343 0.056818582 -0.09261633 0.0018664389
000310 6c b7 f3 3e be 97 32 bf 2e 14 4e bf b8 50 da 3e
       0.47600877 -0.6976279 -0.8049954 0.4263971
000320 71 e3 82 3f 7c 93 e8 3d c1 90 b5 3e 3c 90 09 be
       1.022566 0.113562554 0.35462 -0.13433927
000330 b2 71 2e 3f c7 a7 32 3f c8 df 1a 3f 9d a0 04 3e
       0.68142235 0.6978726 0.60497713 0.12951894
000340 ff b7 b9 3e eb 66 4a 3e c1 af a8 3e d9 57 e0 bc
       0.3627319 0.19765823 0.3294659 -0.027385639
000350 2f c7 c5 3d 91 d9 6f bf 48 0a 79 be 07 d4 4c 3f
       0.09657132 -0.93691355 -0.24320328 0.8001103
000360 c9 79 f3 be 53 65 33 3f 5c f0 fd 3e fa 47 85 3e
       -0.47553852 0.70076483 0.49597442 0.26031476
000370 22 47 4b 3f 0e 22 56 3e c6 b5 10 be 69 19 3d 3d
       0.79405415 0.20911428 -0.14131841 0.04616681
000380 94 56 5e 3e e9 a4 75 bd d1 62 7f 3e 48 50 bb 3a
       0.21712714 -0.059971724 0.24940039 0.0014290893
000390 67 34 35 3f e2 14 93 3d af ef 75 3c 5b bb 96 3e
       0.70783085 0.071817175 0.015010758 0.29439816
0003a0 41 b4 e1 3d 04 22 cb 3c e8 f7 c4 3e 80 6d a1 3e
       0.11020709 0.024796493 0.38470387 0.31528854
0003b0 9e 78 46 3d b5 5a 16 3f 86 1a 2a 3f 0f ec 86 be
       0.048454873 0.5873216 0.6644672 -0.26351973
0003c0 ec 3c 67 3e 76 50 58 bc 19 d3 41 3f 56 a9 58 be
       0.22581834 -0.013202777 0.75712734 -0.21158347
0003d0 e2 74 27 bf c5 69 8e bf c4 d4 06 3f 76 14 47 be
       -0.65412724 -1.1126028 0.52668405 -0.19441399
0003e0 f2 67 bb 3d ab 0c c0 be 01 23 0e bf 21 1a ff 3d
       0.09150685 -0.37509665 -0.5552216 0.124561556
0003f0 86 23 0b 3f 4b f4 0a be e6 ad d8 bc 45 ef 73 3e
       0.5435108 -0.13569753 -0.026450109 0.23821743

fc_output.bias f4 [2]
000000 22 3f e5 bd f0 9e cb 3d
       -0.11193682 0.09942424

fc_input.weight f4 [200, 24]
000000 33 20 69 3f 41 f7 c6 bf 7c 0d 15 be dc 7c c8 3c
       0.9106476 -1.5544206 -0.14555925 0.0244736
000010 db 2d 00 bd ce 06 98 be 15 0e 13 be 19 a1 14 3d
       -0.03129373 -0.29692692 -0.1436084 0.036286447
000020 d8 f9 46 3f 26 8b af bf 0a c5 2f be 5c 07 ce 3e
       0.7772498 -1.371434 -0.17165008 0.4023999
000030 5b 06 05 3f 92 d2 c3 bd 04 c8 10 be ea 9e ef 3e
       0.5196282 -0.095616475 -0.141388 0.4680093
000040 92 f7 f7 3e 0f fb 85 bf 4f 8c 4c be 52 05 92 3e
       0.4843107 -1.0467242 -0.19975398 0.28519684
000050 21 12 97 3f 70 ed fe 3d b4 eb 6b be ac 84 c0 3e
       1.1802408 0.12447631 -0.23039132 0.3760122
000060 1d 3a 15 bf 3f 63 49 3f ba a4 4f 3d f3 11 a3 be
       -0.582918 0.7866706 0.050694205 -0.31849632
000070 dd 38 16 3e a1 c1 81 3e 26 ad 2b 3e 87 6f c4 be
       0.14670129 0.2534304 0.1676527 -0.3836634
000080 d9 83 db be 08 cb 4f 3f a7 81 26 bd c8 59 59 bd
       -0.4287403 0.81169176 -0.04065099 -0.053064138
000090 4d d6 2a 3e 1d 46 09 bf 4b 3b 84 3d 23 d0 28 bc
       0.16683312 -0.5362261 0.06456622 -0.01030353
0000a0 3d b4 9c be 46 e4 71 3f 04 ac 4d 3c 82 f7 00 be
       -0.3060626 0.9448894 0.012553219 -0.12594417
0000b0 f7 35 70 3e 29 3a b2 bf c2 2b 6c bd 9b 5b 05 be
       0.23458086 -1.3923999 -0.05765892 -0.13023226
0000c0 1e d5 e3 3e d1 cf 9e bf d0 28 b1 bb bb f2 1e 3f
       0.44498533 -1.240717 -0.0054064766 0.6208913
0000d0 69 ba 63 bf ee f8 c2 be 18 d1 a6 3c 77 ad 22 3f
       -0.88956314 -0.38080543 0.020363376 0.63545936
0000e0 8a 22 06 3f f6 54 9a bf 4f 30 30 3d ee 76 1b 3d
       0.5239645 -1.2057178 0.04301482 0.037955217
0000f0 52 cd 26 be af 59 ad bd b3 a2 6e 3c e8 05 b1 3d
       -0.16289261 -0.084643714 0.014565158 0.08643705
000100 ba 61 a1 3e d6 ef 77 bf f7 11 12 be 8a b5 3a be
       0.31519872 -0.96850336 -0.14264666 -0.18233314
000110 50 34 d3 3e 29 f9 ae 3d f1 d2 66 be 70 ff 30 be
       0.4125085 0.08543617 -0.22541405 -0.17284942
000120 c5 c8 ee 3d 5a a9 03 be f2 7b cf bd 87 e7 3e bf
       0.116593875 -0.12857571 -0.101310626 -0.7457203
000130 d5 bb e2 3e 71 50 de be 5a 98 0b be f5 f7 40 bf
       0.4428393 -0.43420747 -0.13632336 -0.7537835
000140 aa 22 dc 3c 8a 6b f9 be ca c7 96 be f3 7c 3e bc
       0.026871998 -0.48714858 -0.29449302 -0.01162647
000150 a8 5b 92 3d c5 a5 7a 3d 5f 65 5b be fb a1 31 3d
       0.07146388 0.061193246 -0.21425389 0.043367367
000160 20 fb 28 3e 91 c1 0d bf c2 85 51 3e 0f ec 01 bf
       0.16502047 -0.55373484 0.20461181 -0.5075082
000170 1f 45 a6 be f5 9d 01 3f d7 be 32 3e 4a d4 e3 be
       -0.3247461 0.5063165 0.17455612 -0.444979
000180 ff e0 23 3e 02 ca db 3e d8 12 82 be 64 ba 90 be
       0.16003798 0.42927557 -0.25405002 -0.28267205
000190 a9 a5 ad be f8 7b 8c bf 1b bb 74 be 39 3c bc be
       -0.3391545 -1.0975332 -0.238995 -0.36764696
0001a0 c1 49 35 3e 2c 3e ae 3e 84 e7 13 bd 40 d4 90 be
       0.17703916 0.34031808 -0.036109462 -0.28286934
0001b0 e1 5c 18 be 85 5f a2 bf 74 b6 4f bd fc 1e 7a be
       -0.1487918 -1.26854 -0.05071111 -0.24425882
0001c0 02 77 2a 3e 74 f3 d3 3e b2 07 0e be 28 d2 da 3c
       0.1664696 0.41396677 -0.13870123 0.026711538
0001d0 9d 35 cd 3d 43 ad ba bf c0 c9 4a be 12 0f 4c bd
       0.100199915 -1.4584125 -0.19803524 -0.04981906
0001e0 ab 82 11 3e dd 5e 49 3f 16 ce 5c be 60 f2 4a bf
       0.14210002 0.78660375 -0.2156299 -0.79276085
0001f0 08 e1 fb bd e6 41 af bc 92 22 82 be 77 c2 59 bf
       -0.12298781 -0.021393728 -0.25417 -0.85062355
000200 68 ca 2c 3e a2 6b 13 3f 69 75 bf 3d 1a c9 0f 3e
       0.16874087 0.5758611 0.09348566 0.14041558
000210 5e bf 2a bd d2 dc c7 be 3b df f8 3d 7c 50 91 3d
       -0.04168641 -0.3903566 0.12151953 0.07095429
000220 ab dd 20 3e 69 e5 52 3f 5b 3b f5 bd 34 5e 19 3f
       0.1570956 0.823813 -0.11974212 0.5990937
000230 8a b1 a6 bd 6d 4a 6c bf 84 01 22 bc 20 dc f2 3e
       -0.08139332 -0.92301065 -0.009888057 0.47433567
000240 b3 01 fb 3e 80 86 c8 3e 38 2a 0c bd 6f 48 00 bf
       0.49024734 0.39165115 -0.03421995 -0.50110525
000250 b4 38 02 3f bc 0e dd be 8c 23 db bd 1c 22 f8 be
       0.5086777 -0.43175304 -0.107001394 -0.48463523
000260 ab 1e 14 3f e6 16 c7 3e b4 57 8b bd 00 3c 54 3e
       0.57859296 0.38884658 -0.068038374 0.20726013
000270 7f 29 99 3e ad c9 0d be 10 4b f5 bc 9b d6 80 3e
       0.29914472 -0.13846464 -0.02994302 0.2516373
000280 f4 72 2d 3f cc 12 06 3f 4e 8e fd 3d b1 91 1c 3e
       0.6775353 0.5237243 0.12380658 0.15289952
000290 ff fd 0f 3f 96 24 82 3e 61 70 3e 3e 07 50 15 3e
       0.5624694 0.25418538 0.18597557 0.1458131
0002a0 43 ae 1d 3f 8e af ab be 1f 4a 5b be 7c b5 a9 3e
       0.6159403 -0.33532375 -0.21414994 0.33146274
0002b0 b3 0b af bd 3a 01 b4 bf 62 c9 68 be 7d a3 af 3e
       -0.08547153 -1.4062874 -0.22733071 0.3430442
0002c0 64 29 bd 3e 70 95 2b be e5 68 85 bc 44 16 8b 3e
       0.3694564 -0.16756225 -0.01628537 0.27165425
0002d0 50 11 07 be e0 17 d6 bf a6 db 11 3d ef 2f 2f 3e
       -0.13190198 -1.6726036 0.035609864 0.17108129
0002e0 9d f9 69 3e 3d 55 2e be 1a 4c 6b 3e c1 95 ad 3e
       0.22849126 -0.17024703 0.22978249 0.33903316
0002f0 87 85 d3 bd c2 54 bb bf 4e 7e 81 3e 21 bb 90 3e
       -0.10328203 -1.4635241 0.25291675 0.28267768
000300 b6 c4 98 3d 32 92 86 3d a7 de dd bd f7 26 60 be
       0.07459395 0.06570853 -0.10833483 -0.21889864
000310 aa 89 f4 bd 45 06 32 bf 83 44 21 be 24 69 86 be
       -0.1194032 -0.69540817 -0.15748791 -0.2625209
000320 6b de 04 3e d6 08 91 bd d2 c0 d7 3d 2f 0d 2f bf
       0.1297547 -0.070817634 0.105348244 -0.6837949
000330 44 64 a1 be d3 17 3d bf 1d 0d 0e 3e b0 fa 29 bf
       -0.3152181 -0.7386448 0.1387219 -0.66398144
000340 62 44 4b 3e 36 76 8e 3e f5 c3 2e 3c c7 39 b7 3e
       0.19850305 0.27824563 0.010666837 0.35786268
000350 b4 ff e2 be 4a fc 33 bf a0 ee ae 3d f6 ee 9a 3e
       -0.4433571 -0.7030684 0.08541608 0.30260438
000360 cc 70 56 3f f1 77 26 be f6 95 71 3d 7b d2 b2 be
       0.83765864 -0.16256692 0.058980905 -0.3492621
000370 06 39 0a bf c1 f1 53 bf c3 c0 ad 3c 9d d1 9a be
       -0.5399326 -0.8279076 0.02121008 -0.30238047
000380 0e a8 30 3f 03 49 18 be 27 ab 9d 3d 9e a2 e3 3e
       0.6900643 -0.14871602 0.0769866 0.44460005
000390 bc bf 47 be de 10 f1 be 11 13 01 3e 45 2e e9 3e
       -0.19506735 -0.4708318 0.1260493 0.45543113
0003a0 68 7e 23 3f 76 da 07 be b3 58 b9 bd 60 7f e8 3d
       0.63864756 -0.1326693 -0.09050121 0.1135242
0003b0 c3 b4 21 3e 40 85 6c be b5 f5 b5 bd 61 73 37 3e
       0.15791611 -0.23097706 -0.088847555 0.17915107
0003c0 a1 9b 52 3f 26 3f a3 3e 77 1f 12 be ff 41 b1 bd
       0.8226872 0.31884116 -0.14269815 -0.08655166
0003d0 51 6d 5a 3e f0 47 fc be 22 57 22 be 72 6b 0e be
       0.21330763 -0.49273634 -0.15853551 -0.13908175
0003e0 30 40 44 3f a9 8d a1 3e ff c1 b8 3d 74 08 89 be
       0.7666044 0.3155339 0.09021377 -0.26764262
0003f0 62 76 04 3e 79 5e b0 be 13 01 09 bb 12 3e 8d be
       0.12935784 -0.34447077 -0.0020905181 -0.27586418

fc_input.bias f4 [200]
000000 1f b3 47 bf 53 20 89 bd 40 5d 02 bf 99 0c 2f be
       -0.7800769 -0.066956185 -0.5092354 -0.1709465
000010 8d 29 ff bd 43 73 04 bd 11 46 11 bf 5f 63 15 3d
       -0.12459097 -0.032336485 -0.5674754 0.03647172
000020 fc 6e 4f be 30 dc a9 be 68 f1 19 bf 5c fa 9b 3e
       -0.20257181 -0.33175802 -0.6013398 0.30464447
000030 31 27 66 bd cd f7 16 bf 9a 92 6a bd 61 7b a6 be
       -0.05618972 -0.58971864 -0.057268716 -0.32516006
000040 d3 75 35 bf 29 ac 81 3e ae 66 1d bf a6 ab 28 bf
       -0.7088291 0.2532666 -0.614848 -0.65886915
000050 40 ca 66 be d7 81 fc bd d1 5e 11 bf d2 06 09 bf
       -0.2253809 -0.123294525 -0.56785303 -0.5352603
000060 89 4d ac be 9c bf f0 be 2f 7b df be 58 b8 00 38
       -0.33652905 -0.47021186 -0.4364867 3.068926e-05
000070 94 b9 84 bd b8 ec 92 be b7 78 24 3e ec 8b dd be
       -0.06480709 -0.28696227 0.16061674 -0.43270814
000080 51 fd 27 bf c5 84 9c be 9d b2 72 be c7 20 aa be
       -0.65620905 -0.30570045 -0.23700948 -0.33228132
000090 1a 9c 90 bc 63 55 e1 be eb fd 16 be 6e 4c 27 be
       -0.01765256 -0.44010457 -0.147453 -0.1633775
0000a0 9f 94 45 3c ab 06 dd be fa a3 29 bf 51 26 0b be
       0.01205936 -0.4316915 -0.66265833 -0.13588835
0000b0 89 f2 d1 be 49 a8 c8 be a9 8a 07 bd 74 0e 7c be
       -0.41005352 -0.3919089 -0.03309122 -0.24614888
0000c0 8d 1b 62 be a7 b5 0a be db 49 4e be 7b 04 a7 be
       -0.22080822 -0.13545857 -0.20145361 -0.32620606
0000d0 ab c5 23 bf bc 3b 0d bf 7f 49 12 bf 3a 06 dc bd
       -0.6397349 -0.5516927 -0.57143396 -0.10743375
0000e0 d7 3c 29 bf 83 5e 0a bf 22 2d 4a be e6 f7 1b bc
       -0.6610846 -0.54050463 -0.1974378 -0.009519553
0000f0 27 06 46 bd d7 fa d7 be a0 1b 01 bf 61 02 fc be
       -0.04834571 -0.42183563 -0.5043278 -0.49220565
000100 2a 2e 27 bf 07 92 19 be 7f 35 b4 be a6 af 7d be
       -0.65304816 -0.14997111 -0.35197064 -0.24774036
000110 91 a5 34 bf f9 68 cd be 54 05 65 bd f4 12 6b be
       -0.70565134 -0.4011915 -0.055913284 -0.22956449
000120 8a 52 6d 3e 9e 87 1f 3e 2a 6c e7 bd 90 55 22 bf
       0.23176017 0.15579078 -0.112999275 -0.6341181
000130 b8 ce da be 7b cd b8 be 23 36 e4 be 88 63 22 bf
       -0.4273584 -0.3609427 -0.44572553 -0.6343312
000140 e9 3b 00 bf 4e 69 c0 3d 37 d9 fb bc bb be 96 be
       -0.50091416 0.09395085 -0.030743225 -0.2944239
000150 20 32 ba bd 11 16 a0 be e4 28 11 be 8e 8b 3f 3c
       -0.09091592 -0.31266835 -0.14175755 0.011690987
000160 0a 9d 77 be 2b 57 2a bd c5 a1 87 3e 23 c7 42 bf
       -0.24181 -0.041587036 0.26490608 -0.7608511
000170 0e fd 90 bd b4 53 0b bf 95 a5 14 bf a4 95 14 bf
       -0.07079516 -0.54424596 -0.5806516 -0.58040833
000180 57 08 53 be 94 18 eb bd a9 66 c2 be 5f 62 e5 be
       -0.2060865 -0.11479297 -0.37968948 -0.44801614
000190 16 dc b1 be 59 5d ac be 32 e8 4d be f7 7a 21 3e
       -0.34738225 -0.3366497 -0.20108107 0.15769564
0001a0 61 8b a6 be 5b 26 02 bf 1b c2 62 be a9 85 e4 be
       -0.32528213 -0.50839776 -0.22144358 -0.44633225
0001b0 14 19 f0 bd e5 41 c8 be ac b6 f1 be d9 49 02 bf
       -0.11723533 -0.39112774 -0.4720968 -0.5089393
0001c0 d9 98 36 be a2 2c ea be a6 c9 6d be 77 b3 e9 bd
       -0.17831744 -0.45737177 -0.23221454 -0.11411183
0001d0 f8 65 5b be e8 a6 82 3c 3b b0 ad be 58 63 05 be
       -0.21425617 0.015948728 -0.33923516 -0.13026178
0001e0 be fa d7 be 78 9d 3b be f0 d2 e6 bd b0 9f 81 bd
       -0.4218349 -0.18321788 -0.11270702 -0.06329286
0001f0 7a 86 d0 be 3b f2 ae be b5 72 0b be fc fd 16 be
       -0.40727597 -0.34169182 -0.13617976 -0.14745325
000200 4c 2c 15 bf d9 e0 f9 be cb d2 ea be 02 a2 26 bf
       -0.58270717 -0.48804358 -0.45863947 -0.65090954
000210 51 d0 59 bd 6f 8a 62 be 6c 28 70 be 88 95 3a bf
       -0.05317718 -0.2212312 -0.2345292 -0.72884417
000220 51 72 90 be 05 f5 d3 be 4a a1 dc bd fe 2a fb be
       -0.28212216 -0.41397873 -0.10772951 -0.49056238
000230 16 9a 08 bf be 04 1a bf 6a 84 ea be 8f 09 a0 be
       -0.53360116 -0.60163486 -0.4580415 -0.31257293
000240 a1 93 ae 3e ff 00 9a bd 18 b3 53 be 44 a3 16 bf
       0.34097007 -0.07519721 -0.20673788 -0.58842874
000250 99 5b 93 be 62 05 d4 bc b6 e2 7f be 58 f7 c4 be
       -0.2878082 -0.025881473 -0.24988827 -0.38469958
000260 d0 b3 8d be c6 3c 47 be df c7 2c bf 7a c8 a2 bd
       -0.2767625 -0.19456777 -0.6749248 -0.07948394
000270 75 86 f4 be 5c cf 05 bf 29 ba b9 3d 11 4a e1 bd
       -0.47758833 -0.5226953 0.0906871 -0.11000455
000280 da 27 91 be c7 72 36 bf 71 5b 98 be ca 1d 3e be
       -0.28350717 -0.71268886 -0.29757264 -0.18566051
000290 6c 4f c0 be 0f a4 0f bf ee 63 41 be 95 33 21 bf
       -0.37560594 -0.5610971 -0.18885776 -0.6296933
0002a0 90 9f 81 bb 6e c6 61 3d 42 63 7a bf ff 7e a1 bd
       -0.003955789 0.055120878 -0.97807705 -0.07885551
0002b0 55 33 d8 be d5 c0 d1 bb cc 0b a2 bb 88 ec d4 be
       -0.42226663 -0.006401161 -0.004945254 -0.4158671
0002c0 fc cc a8 3d 8c 6e 6d be b4 a5 94 be a5 b8 31 3e
       0.08242223 -0.23186702 -0.2903267 0.17355593
0002d0 ac bb 9c 3d 34 8a c6 3e ee 3d 5b be c0 ff 21 be
       0.07652983 0.38777316 -0.21410343 -0.15820217
0002e0 1f 36 a2 bd 7b 64 9e be f0 fb f2 3d 2f 36 1e bf
       -0.07920479 -0.30936036 0.118644595 -0.6180143
0002f0 7c b8 01 bd 43 53 16 bd a9 57 cb be d0 d1 fa be
       -0.03167008 -0.0367005 -0.39715317 -0.489882
000300 92 1e 6c be 98 96 31 bf d8 59 cb bc c3 e4 c1 bc
       -0.23058537 -0.6937041 -0.024823114 -0.023668652
000310 7a 1b c5 be 6c 5c 37 be 02 cb 15 bd 67 54 33 be
       -0.38497525 -0.1790635 -0.036570556 -0.17512666

hidden.weight f4 [150, 200]
000000 f6 03 2a 3d 20 d1 d4 bd 79 72 eb bd 2b a4 ba be
       0.041507684 -0.1039145 -0.11496443 -0.36453375
000010 de 23 1c 3e e4 3d d7 3e ba fc e5 3e c5 5e 0b 3d
       0.15248057 0.42039406 0.44919378 0.034025926
000020 14 00 3e 3e 30 72 5a be 84 56 12 3e d9 0c 71 3e
       0.18554717 -0.21332622 0.14290816 0.23540057
000030 da 0f 3a 3e c3 1f 67 3e df c5 44 bd 31 07 de bd
       0.1817011 0.2257071 -0.048040267 -0.108412154
000040 b0 85 99 3d b6 8c 8e 3e 79 3e 1f 3f 5e 4a b8 be
       0.07496202 0.2784173 0.622047 -0.35994238
000050 f1 5a 45 3e 0e 2a 54 3b 5d af c2 3d fa 49 2b 3c
       0.19272973 0.00323737 0.09506104 0.010454649
000060 15 8a ab 3e d3 4b 07 3f 1b 20 a2 3e bb f1 d9 be
       0.33503786 0.52850074 0.3166512 -0.42567238
000070 74 4f e4 3c 06 d6 03 bf 62 9a ea bc 72 26 9a 3d
       0.027869917 -0.5149845 -0.028638069 0.07526864
000080 c1 b4 83 3e a6 1d d3 3c 11 22 c3 be 8f 0a 10 bf
       0.25723842 0.025770973 -0.38111928 -0.5626611
000090 48 33 83 3e 40 c6 5e be 33 26 f7 bd 0e 10 c2 3b
       0.25625062 -0.21755314 -0.12067833 0.005922324
0000a0 b9 4e dd 3e 74 83 82 bd 86 c5 74 bf 1b b2 0d bf
       0.43224123 -0.06372729 -0.95613897 -0.5534989
0000b0 1b 0d af 3e d0 81 75 be bf 78 67 3e c6 33 04 bf
       0.34189686 -0.23975301 0.22604655 -0.516415
0000c0 7b 20 de bd b3 5a b6 3e 98 6d b7 bd 44 d2 ba be
       -0.10846039 0.35616073 -0.0895645 -0.36488545
0000d0 c2 dc 10 bf 52 d6 88 bd 50 82 10 be f3 fc b4 3e
       -0.5658685 -0.06681503 -0.1411221 0.35349235
0000e0 d4 34 6d 3f e4 fc d9 3d 8a 6a fb 3d c4 53 5c 3e
       0.92658734 0.10643938 0.1227618 0.21516329
0000f0 19 75 11 3f f3 f0 03 be 59 b8 ae 3e 6f 40 17 3f
       0.568193 -0.12884884 0.3412502 0.5908269
000100 7a 56 36 bd 67 4f 4e 3e 74 5c 2a 3e 58 fc 8b 3e
       -0.044516064 0.20147477 0.1663683 0.2734096
000110 74 b8 2b bf b7 c6 49 be d2 8f 92 3d e3 7d 56 bf
       -0.6707833 -0.1970471 0.07156338 -0.8378584
000120 59 b1 b8 bd 91 d4 08 bd e3 de f6 3e fc 57 fe 3d
       -0.090182014 -0.033405844 0.48216924 0.124191254
000130 e0 14 c1 bd 3d 5a 3a 3e 2d 8a b0 be 4f 91 fb 3d
       -0.0942781 0.18198486 -0.3448042 0.12283575
000140 97 45 09 3f b2 27 6b be e5 e2 bc be 02 5f 15 bc
       0.5362181 -0.22964361 -0.36891857 -0.00911689
000150 61 ae 1a 3f fa ca 00 3d 4d 5b d4 be 0e 1a bf 3e
       0.6042233 0.031443574 -0.41475907 0.37324566
000160 a5 cc 84 be 77 73 3a be 4b 04 5b 3d 93 58 96 3e
       -0.2593738 -0.18208109 0.05347089 0.29364452
000170 a8 a3 74 be c8 d6 29 bf 1a 73 a0 bf cb 73 cc 3e
       -0.23890555 -0.66343355 -1.2535126 0.39932093
000180 66 f8 1f be 51 7e 23 3e 99 ee a7 3e e5 37 6a bd
       -0.156221 0.15966155 0.32799223 -0.05718221
000190 9b 33 55 bf 76 5e 8b 39 4a fb 0d be a8 bf 02 be
       -0.8328187 0.00026582525 -0.1386539 -0.12768424
0001a0 52 8f ad be 64 3b b7 3e 4d b7 30 3d 14 fc b0 3e
       -0.33898407 0.357875 0.04314356 0.3456732
0001b0 81 34 c3 be 1d 50 95 be 1f 04 48 be 7f 05 77 3d
       -0.38125995 -0.29162684 -0.19532822 0.060307976
0001c0 80 d4 c9 3e 54 1e 1f be 52 a7 26 bf da 06 b0 bf
       0.39419937 -0.15538913 -0.6509906 -1.3752091
0001d0 49 f3 a0 3d bf 55 45 bf 42 36 a5 3e d2 83 81 3e
       0.07858903 -0.77083963 0.32267958 0.25295883
0001e0 ae ea 2d 3c 3c aa 7e be 88 6b 58 3e a1 06 53 be
       0.010615034 -0.24869627 0.2113477 -0.20607997
0001f0 50 b2 b3 3e 2e d7 b5 3e d3 b3 04 3e d5 d2 3b bd
       0.3509698 0.35515732 0.12959222 -0.045855362
000200 59 89 8b 3e b8 cb 4f bf 80 86 0a 3f 77 7d e6 be
       0.27253225 -0.81170225 0.5411148 -0.45017597
000210 ed 04 bc be c5 b2 59 3e d2 03 86 be 37 2c 44 3e
       -0.36722508 0.21259601 -0.2617479 0.19157492
000220 c6 c0 3b be 0a bb 83 be b1 e6 0f 3f 01 5d 23 bf
       -0.18335256 -0.25728637 0.5621138 -0.6381379
000230 cb 0f 89 bd 6c e8 d5 bd b6 a7 02 3e bb fb 28 3b
       -0.066924654 -0.104447216 0.12759289 0.0025784809
000240 36 a1 0b bf c6 13 7a 3e 2a 99 2a 3d e6 88 ab 3e
       -0.54542863 0.24421605 0.041649975 0.33502883
000250 c2 04 94 3d b5 f9 5b bd bb a6 c5 be 7e b0 d0 3e
       0.0722747 -0.053704936 -0.38603768 0.40759653
000260 4f b0 a0 be cf 14 50 3e fa d9 6a bf 6e 54 be bd
       -0.31384513 0.20320438 -0.91738856 -0.092934474
000270 39 f7 2a 3e f8 fc cb be 7f 1d 06 be 7f 47 46 bf
       0.1669587 -0.39841437 -0.1309719 -0.77452844
000280 6e 00 cd 3e c4 ae 1d 3d 4f d6 8e bd 9e 8e 7a 3e
       0.4003939 0.038496748 -0.0697447 0.24468467
000290 cd d7 8f bf 1d 3c 09 3e 29 3d 10 bf d4 5b b5 be
       -1.1237732 0.13401838 -0.56343323 -0.35421622
0002a0 b9 bb 4e 3e c6 9c c6 be c5 f5 31 3f fb ed ba 3e
       0.20188798 -0.38791484 0.6951564 0.3650969
0002b0 55 16 12 3d 45 fa d5 be 36 0a 1f be 74 b4 13 be
       0.03566583 -0.41792503 -0.15531239 -0.14424306
0002c0 1f cc 0a 3f 6a b7 20 3f 55 cb b3 3e 15 78 b9 bd
       0.54217714 0.6277987 0.35116068 -0.09056107
0002d0 d8 8b 1d be 5d 03 07 3f c4 a8 55 bf 35 e3 3b be
       -0.15385377 0.52739507 -0.8346064 -0.18348391
0002e0 24 33 60 be f4 d6 56 bf 9f 12 f6 3d e4 02 94 3e
       -0.21894509 -0.8392174 0.120152704 0.28908455
0002f0 fd ae fd be 1c 6a 61 be 4d c3 ca bb 16 e4 96 3e
       -0.49547568 -0.22013134 -0.0061878324 0.2947089
000300 50 6f be bd 06 d4 9f be 2e ca 09 bf 8a 85 a8 3c
       -0.09298575 -0.3121645 -0.53824127 0.020571489
000310 32 b7 3d 3e 6b 42 c9 be 51 9e 02 bf 38 81 22 bf
       0.18526915 -0.39308485 -0.5102282 -0.6347842
000320 b8 69 bd bd 0f 59 15 bf a7 a6 31 bf e8 9e d2 3d
       -0.0924868 -0.5833902 -0.69394916 0.10284215
000330 00 28 78 3e ba 53 11 3b bb 9c 9d 3e fd 15 01 3f
       0.24234009 0.002217515 0.30783638 0.50424176
000340 7e 89 36 3e 12 fc 51 bd 09 21 25 be ca 88 80 3e
       0.17825887 -0.051265784 -0.16125883 0.25104362
000350 fa 26 10 be e9 cc d4 3b 63 4e 1c bf ac 72 5e be
       -0.14077368 0.0064941538 -0.6105711 -0.21723431
000360 45 2d 58 bd b2 38 f5 be ef d0 0b 3f 73 6a dc 3d
       -0.052777547 -0.47894818 0.5461568 0.10762491
000370 7b c4 8c be c3 3e de 3e 65 cb d8 3d 5c 2d 3f bf
       -0.27493653 0.43407258 0.105856694 -0.7467859
000380 92 19 25 3f ec 4d 51 bf 44 fe 60 3e d3 14 92 3e
       0.6449214 -0.81759524 0.21971995 0.28531513
000390 ed 49 1e bf 99 b3 80 bf aa b4 c0 3e 2a 52 20 bf
       -0.6183155 -1.0054809 0.37637836 -0.6262537
0003a0 32 a7 cc 3d e9 9f 04 3f 56 a7 43 be 9b 23 55 bf
       0.099928275 0.51806504 -0.19106802 -0.83257455
0003b0 a8 64 b7 3b 45 73 f7 bd a7 96 25 3e 1d ba fc 3e
       0.005596716 -0.12082533 0.1617075 0.49360743
0003c0 30 9c d4 bd a3 38 7e be ce 21 cf bc 15 98 4e be
       -0.10381353 -0.24826293 -0.025284674 -0.20175202
0003d0 35 fd 4f 3d bb 42 7d 3d 4e f0 03 3e bf 35 dd 3d
       0.050778586 0.061831217 0.12884638 0.10801267
0003e0 c5 1c 1e 3c a0 14 34 3f 3d 55 1f bf 0d fc 2b 3d
       0.009650414 0.7034397 -0.6223944 0.04198842
0003f0 67 c6 b5 be 87 3a dd 3e 63 ab 2c 3e a3 c5 31 be
       -0.3550293 0.43208715 0.16862254 -0.17360549
